pgd/model/pdg_net.pth (torch, 343751 bytes, 8 tensors)

conv1.weight f4 [32, 1, 5, 5]
00000000: 6fb3 f7bc f9f6 22bd d83e 0dbe 5159 babd
00000010: c7c2 31be d6e6 d3bd 399e 0dbe 4dd0 45be
00000020: 9616 f53c aa08 fbbd 69ee 0e3e 2bd1 99ba
00000030: 2db6 24be 6991 87bb de49 7fbd 5435 e0bd
00000040: 6fcf 633e 1b28 513e a6dc 4d3e 10a9 663d
00000050: 027f 893c 07c5 293c b1a5 903e a5db c33d
00000060: 6433 893e c522 babc 865c 05be 5065 a9bb
00000070: 3ba5 8c3e 81fb 903c 31bd 6fbe dc31 85bd
00000080: ae0a 3b3e f6b2 8a3e 8c86 83bd 1b4a 5abe
00000090: d551 80be 2fdc 513e b27b fa3d b923 393d
000000a0: bae3 6ebe 4059 8cbd 1667 dbbd bba3 6f3e
000000b0: cc50 673e a1c9 40be 4b60 963d 1886 99bd
000000c0: 647b 723e 73cd 7f3e f606 473e 3630 2fbe
000000d0: 6372 cc3d ed7b 20be 125d 343e e231 1cbd
000000e0: ca3d 2ebe a61e c23d 8244 a73d fee7 353c
000000f0: 9680 2a3e fb9d d1bd 7562 0a3e 0900 823c
00000100: 2e06 bfbd 4329 08be d88e 68bd 3cf3 c33a
00000110: 07d4 16be 7ae3 d8bd 4f40 18be 676e 6f3d
00000120: 6b9d 3ebe 8677 083e 4bf7 763d a004 863e
00000130: 87d9 9eba 48ed 673e 673e 6d3e 6f31 2c3d
00000140: 4231 7d3e 0b08 d8bc b4a7 723e c1d6 953e
00000150: ac64 823d 2a29 553b dc46 573d a81a 4f3e
00000160: 13e6 ca3e 737e c93e 7e34 68bd d50f 7dbe
00000170: d772 19be ce73 10bd f3ee b93e 1603 9d3c
00000180: 1493 83be 82f7 abbd a6d5 943d da47 8f3e
00000190: e6fe febd 6f84 de3d 18bd a3bb 2d68 073e
000001a0: 722d 5a3e b0a3 a93d a197 df3b e6f7 333a
000001b0: 9c12 f1bd 3e4b d63d 341c 13be ff2a 67be
000001c0: 6015 81be d169 74be fb5c aabd 6e57 22be
000001d0: e79a a33d 67fa 41bd b0e8 8d3c b0cb 46be
000001e0: b029 6b3e 8eea 2d3e 8aa9 853e 95a1 e6bd
000001f0: 897e 373e 6edd 12be a7e9 e03d cc8b ef3d
00000200: c7fd c9bd 9f87 29bd ca8b b4bd 35fb 653e
00000210: 46e0 f13d ef24 2bbd 7f78 a4bd 76da 3fbe
00000220: 738d 803c 6c81 0d3e 3aa2 bf3d 3009 4ebc
00000230: 2e26 debd c281 4abe efb6 7dbd 0014 833e
00000240: f838 c3bd b952 453e 33eb 20be 5645 42bd
00000250: 77d6 6b3e 2e07 a0bd f6b3 9d3a 397b 0a3e
00000260: d91f 28be a10e 1ebe cdb4 27be 4baf 003e
00000270: 8f25 c3bd 1bf6 8f3d 02ca bbbd 6ac7 34be
00000280: ba33 883e f905 85bd 62f3 473d aae7 843d
00000290: 40ca 18bd 1ea1 543d b6c0 ce3e b8d6 ee3e
000002a0: aef1 dd3e 8fd3 ac3e 48dc b93e c67c eb3d
000002b0: c3cd a93e 5f7e 943e 8b1f 763e 4d71 0e3e
000002c0: 7a3c 03bd 50a4 7dbe 39cd 7ebe 4656 15be
000002d0: 78f6 44bd 02e5 c2bd 2a5c 213e fb8c e23c
000002e0: 57a1 683e bc4e b43e 9f98 143e 8c8b 8e3e
000002f0: 5542 c93d ab2b 0e3e 797e 9f3e 6790 8c3d
00000300: ac39 f93d cf04 24bd 376d 563e d1cd 373e
00000310: 3ccc 60bd 3a58 52be 0ff3 38be bc4a 53be
00000320: 3782 863e 15ef d23e 0090 e53e 8457 cf3e
00000330: bb71 863e a123 163d e1e7 fd3e b72e b23e
00000340: 0fa5 fc3e e3c4 b33e 7d88 923e e23a 48bd
00000350: 7021 9b3e 21c5 b13d 61f0 893d febc 7ebc
00000360: fd1e 86be 6a0b 12be b0aa 03be 27e0 47be
00000370: 0364 96be 1907 5bbd b83a 40bd 363b 0fbd
00000380: ab93 91bc cbc7 033c 221e d2bd 7c05 f0bd
00000390: b4ce 57be 959d 3d3e 3fb5 223e 2891 a0bd
000003a0: c732 eebc c08d ffbd e972 343e f8cd 1bbe
000003b0: 2bb7 b0bd 5899 853d 7c2e a93e 1fae 463e
000003c0: 1d77 783e 1662 ae3e 7924 c33e db1e 8a3e
000003d0: 6513 1bbb df13 883e 8f9f 113e 6292 a13e
000003e0: 5ebc 263e 494e edbd c564 39bc 4d2b d2bd
000003f0: 6e18 ed3d 06f8 50bd 2098 ab3e 2f6d 263d
-0.030236928 -0.039786313 -0.13793504 -0.09099067 -0.17359458 -0.10346763 -0.13829888 -0.19317742
0.029917996 -0.12257512 0.13958134 -0.001173531 -0.1608512 -0.0041372073 -0.062326305 -0.109476715
0.22247098 0.20425455 0.20103702 0.056313574 0.016784195 0.010361916 0.28251413 0.09563378
0.2679702 -0.022721658 -0.13023576 -0.005169548 0.2746981 0.017698051 -0.23412015 -0.065036505
0.18265793 0.2708966 -0.06422147 -0.21317331 -0.25062433 0.2049415 0.12230624 0.045200083
-0.23329058 -0.068529606 -0.107130215 0.23402302 0.22589415 -0.18826915 0.07342585 -0.074962795
0.23679882 0.24980716 0.19436249 -0.17108235 0.09982755 -0.15672274 0.17613629 -0.03813351
-0.17015758 0.09478502 0.08167364 0.0111026745 0.16650614 -0.102352105 0.13514121 0.015869157
-0.093273506 -0.1329699 -0.05677685 0.0014949809 -0.1472932 -0.10590263 -0.14868282 0.058454897
-0.18614738 0.13326845 0.06029443 0.26175404 -0.0012119272 0.2264911 0.23168336 0.04203933
0.24725822 -0.026371023 0.23696786 0.29265407 0.06366858 0.0032525756 0.05255781 0.20225012
0.39628658 0.39354286 -0.056690685 -0.2471307 -0.14985214 -0.03526669 0.36315116 0.01916651
-0.2569815 -0.08396818 0.07267313 0.27984506 -0.12450962 0.108651035 -0.004996907 0.13223334
0.21306399 0.08283174 0.0068234955 0.0006865248 -0.117711276 0.1046357 -0.14366227 -0.22574995
-0.2521162 -0.23868491 -0.08318516 -0.15853664 0.0798853 -0.047357943 0.017322868 -0.19413638
0.22965121 0.16984007 0.2610591 -0.11261288 0.17919363 -0.14342281 0.10982066 0.11696586
-0.09862857 -0.041389104 -0.08815725 0.22459109 0.11810355 -0.04178327 -0.08030795 -0.1873568
0.015692448 0.13818902 0.09357114 -0.012575433 -0.10847126 -0.19776061 -0.061942037 0.25601196
-0.0953235 0.19269837 -0.15714721 -0.047429405 0.2303103 -0.078138694 0.0012031782 0.13523568
-0.16418399 -0.15435268 -0.16377564 0.12566869 -0.09528648 0.07029363 -0.09169389 -0.17654195
0.26601964 -0.0649528 0.048816092 0.06489499 -0.037302256 0.051911466 0.40381402 0.46648192
0.4334845 0.33755156 0.36300874 0.11498408 0.33164796 0.29002663 0.2403547 0.13910408
-0.032040097 -0.24769711 -0.24882974 -0.14583692 -0.048086613 -0.09516336 0.15757814 0.027655115
0.22717796 0.3521632 0.14511345 0.2784084 0.09827105 0.13883846 0.31151178 0.0686348
0.12169203 -0.04004365 0.209401 0.17949606 -0.054882273 -0.20541468 -0.1806147 -0.20633978
0.2627122 0.4119803 0.44836426 0.40496457 0.26258644 0.036655072 0.49590972 0.34801266
0.4934468 0.3511115 0.28619757 -0.04888428 0.30298948 0.086801775 0.06735302 -0.015547989
-0.26195517 -0.14262167 -0.12858081 -0.19519101 -0.29373178 -0.053473566 -0.046931 -0.034968577
-0.017770609 0.00804324 -0.10259654 -0.11719796 -0.21074945 0.18517144 0.15889452 -0.07840186
-0.029076947 -0.124782085 0.1762196 -0.1521529 -0.086286865 0.065233886 0.33043277 0.1940236
0.24264188 0.3405921 0.38113764 0.26976666 -0.0023662683 0.2657766 0.14221023 0.31556994
0.16282794 -0.11587197 -0.011315529 -0.10262165 0.11576925 -0.051017784 0.335145 0.04063147

conv1.bias f4 [32]
00000000: 926b 013e fd21 313e bb28 93bd c6d0 ca3d
00000010: 2b5f 9f3d 0cd9 93bd 40eb ef3c 4bf5 5e3e
00000020: fc9f 823c e1e6 dc3c e7eb 0c3c d7de 4a3e
00000030: 317e 053e e45b 06be ff9a 3638 a7c6 533e
00000040: e9e2 333e 639c c7bd 0fa4 b1bd 1546 f3bd
00000050: 0206 833e b17b 853e d554 303d d1f7 27b6
00000060: 63ff 0fbb 7d3f 4837 326e 1dbd 5068 0839
00000070: 32c6 d13d 97e5 d9b7 1ed6 8f3b d4b4 18be
0.12638691 0.17298122 -0.07185503 0.099031016 0.07781824 -0.07219133 0.02928698 0.2177326
0.015945427 0.02696556 0.008601165 0.19811569 0.1303642 -0.13120991 4.3536533e-05 0.20681249
0.17567028 -0.09746625 -0.0867387 -0.118786015 0.2559052 0.26070932 0.043049652 -2.5029187e-06
-0.002197229 1.1935711e-05 -0.03843517 0.0001300883 0.10242881 -2.5975327e-05 0.0043895384 -0.1491273

conv2.weight f4 [64, 32, 5, 5]
00000000: 88a0 09bc ae28 dcbb 6f3a 1cbc 41ab c2bc
00000010: 6fa1 b9bc 32e7 a1bc 6925 babb 5013 4e3c
00000020: fed9 693c f54f 443c afbb babc 3bd1 0c3c
00000030: 1a11 63bd 9c3f 9f3c 4aa6 14bd a48c d4bc
00000040: 4fe5 e63c 22b0 db3c d74a 12bd e601 3dbd
00000050: 1d5f 133d e849 be3c f0c8 2bbc 730a 3bbd
00000060: fac4 46bd 787e 24bc 12d6 013d 1f84 11bd
00000070: 111b 0abd 2b9b 5abd 2237 a1bc 06be 48bb
00000080: 34c6 80bd 3d06 96bc ec92 c73c b14a 6eba
00000090: ba38 43bc 67e5 043d 8d8f 59bb 66dc af3c
000000a0: cc0b 413d 62b7 be3c 494f 85bc 822a 133d
000000b0: 0a4f 54bd bdd2 d3ba 9c16 3dbb a9fe 1e3c
000000c0: 6759 15bb a22a 56bd fe4e 8d3c 5e7c b33b
000000d0: d9ef eabc 993c 0dbb b1ef 03bd 8e62 a7bc
000000e0: 2db6 eb3c c697 043b 52a8 f43c 38c0 403c
000000f0: 17cc 02bd 9ec7 0b3c 853b a7ba 3c63 ebbc
00000100: 213f b1bc 0156 f53c d43f 83bc 8481 743c
00000110: c86a edbc f235 2abb 8741 b8bc fe1e e4bc
00000120: cb3f 1dbb 1222 53bc ac0c 1fbc 7ea7 e73c
00000130: c531 7bbd 0c2a 35bd 1d76 883c 572a e13a
00000140: b816 d83b a88c a73c 080a ab3c b50c 3c3d
00000150: 2e57 00bd 17aa ad3c 4cb1 143d 1b32 523d
00000160: 2bc8 533d fc7a fa3b 04fa db3c 2c55 66bc
00000170: 886c 823d 71f0 69bc 5e79 2b39 f0fc 51bc
00000180: 1b49 a3bc 7f2c 47bc b397 233b 27d1 45bc
00000190: beaf f0bc cd7f e23c be26 2d3d 8953 a8bb
000001a0: a595 053d f5d3 94bb 3ffa d23c a6bc 42bc
000001b0: 167c 32b9 fe0a 333d bad3 19bd facc 29bc
000001c0: 05ef 3b3d 2857 65bc a8ea cc3c 8e38 cb3c
000001d0: 0f6b 353c 3697 c63c bcb0 b1bc b35b e0bc
000001e0: 4f81 ec3c 0c1c 0a3d 04dd b83c 8a6e 02bd
000001f0: d1fd c939 8061 863c d3b8 ffbc 4dfd d53b
00000200: ad8c e2bc 2d91 3a3d 6730 6cbc e265 073c
00000210: 1a16 d73c 979f 493d 332a e03c e9c2 a3bc
00000220: c6e3 093d 7ab2 053d f555 893d 5336 593d
00000230: 1991 543d f28b 733c eccf e13c 5540 513c
00000240: 9231 17bc 5e3f 503d 7af2 223c 77ac c7bc
00000250: a789 2c3d 6147 873c a1e3 863c 61e3 ec3b
00000260: 6f3b 513d f928 113d ce8e c1bc 4cb6 5fbc
00000270: 7413 c63c 9ac8 193d a57a 47bb 316b 8aba
00000280: 9590 e6bc b299 0fbd 8b73 783c 6309 183d
00000290: 1238 3b3d 9836 a7bc 02e0 e63c 71f4 9a3d
000002a0: dfb6 c53b be3b a43b 8aa1 b53d f765 0f3d
000002b0: 548f 2b3d 9759 133c d31e 8dbd f93e 203b
000002c0: 6690 cbbc 1fb9 8e3c d840 38bc 5cc3 c33b
000002d0: 72ab d13a fabe 6b3d c4b8 933d eaa8 2f3d
000002e0: f411 c8bc 9f40 7c3d 0c0c 2fbc 88ee 523c
000002f0: 2b81 703c 682a 3abc 5fa2 0abd 1a74 4dbd
00000300: c3de c1bc a67e c53c ded8 363d e597 88bc
00000310: 97f3 723d 69fd 773d 8a9f 423d 0f30 a2bb
00000320: 7400 2cbd f215 2ebd 70cd 05bd c96f d33a
00000330: 0e10 acbc 500c edbb 6c82 1abc 3fc5 a13c
00000340: 061e d9bc 991c 9cbc 5091 5e3c af7e 693d
00000350: 8d1e 373d cafb 623c d73e 9dbd 7498 273d
00000360: b2d0 763c 5f42 f2bc 068b 33bd 0964 e93c
00000370: 619c b1bc e87a f3ba 5c0b af3b 6f84 4e3d
00000380: dcf7 2b3c 65f1 503c 68ae b639 8168 453c
00000390: 16bb 5b3d f145 03bb 12fd 8e3d 1ec0 413d
000003a0: ff1e b53b 0bcb a23b ac6c 60bd de21 3c3d
000003b0: 66ae 4abc 7b1a ebbc 4317 3d3c 1ab7 423d
000003c0: 7aa6 2ebd 1eed 05bc c666 c63c 630b b23d
000003d0: 5712 e0ba 114a 093d e84a 9e3d ab95 b03d
000003e0: d95c 263d 7aaf 5cbd db01 dabc 837a 9abc
000003f0: 29aa 8fbc 5ab1 e4bb abc4 0a3d 1312 013d
-0.00840009 -0.0067187166 -0.009535416 -0.0237633 -0.022659985 -0.019763563 -0.005680729 0.012577847
0.014273165 0.011981954 -0.022794573 0.008594806 -0.05543623 0.019439511 -0.036291398 -0.025945969
0.028185515 0.026817385 -0.035715904 -0.04614439 0.03597938 0.0232286 -0.010484919 -0.045664262
-0.048527695 -0.010039918 0.031698294 -0.03552639 -0.03371722 -0.053370636 -0.01967961 -0.003063084
-0.06287804 -0.018313522 0.02436205 -0.00090901094 -0.01191538 0.032445338 -0.0033197135 0.021467399
0.04713039 0.023280803 -0.016273158 0.03592921 -0.05183319 -0.0016160827 -0.0028852588 0.00970427
-0.0022788884 -0.05228675 0.01724958 0.005477472 -0.028678821 -0.0021551012 -0.03221101 -0.020432737
0.028773392 0.0020232066 0.029865418 0.0117645785 -0.031932916 0.008531479 -0.0012758827 -0.028733842
-0.021636548 0.029948236 -0.016021647 0.014923457 -0.028981581 -0.0025972095 -0.022492183 -0.02784681
-0.0023994322 -0.012886541 -0.009707611 0.028278109 -0.06132676 -0.044229552 0.016657883 0.0017178756
0.006594505 0.020452812 0.020878807 0.045910556 -0.03133314 0.02119927 0.036301896 0.051317316
0.051704567 0.0076440554 0.026852615 -0.0140583925 0.06368357 -0.014278517 0.00016353044 -0.012816653
-0.01993232 -0.012156605 0.0024962246 -0.012073792 -0.029380675 0.02764883 0.042273276 -0.0051369113
0.032613415 -0.004541869 0.025754092 -0.011885798 -0.00017021628 0.043711655 -0.037555434 -0.010363812
0.045882244 -0.01399783 0.025014237 0.02480724 0.011072888 0.024242025 -0.021690719 -0.027387476
0.028870253 0.033718154 0.022566326 -0.0318437 0.00038526815 0.016403913 -0.03121606 0.00653044
-0.02765497 0.045548607 -0.014415837 0.008264037 0.026255656 0.049224462 0.027363872 -0.019990401
0.033664487 0.03264091 0.06705848 0.053030323 0.05189619 0.0148649085 0.027564965 0.012771686
-0.009228127 0.05084168 0.009945506 -0.02437423 0.042123463 0.016513528 0.016465964 0.007229254
0.05108207 0.035439465 -0.023627665 -0.013654303 0.024179198 0.037544824 -0.0030438092 -0.001056051
-0.028145114 -0.035058685 0.015164266 0.037118327 0.04570777 -0.020411775 0.028182987 0.07566155
0.006033763 0.0050120046 0.08868702 0.03500935 0.041884735 0.008993528 -0.06890645 0.0024451597
-0.024849128 0.017422257 -0.011245929 0.0059742164 0.0015996529 0.057555176 0.072129756 0.0428857
-0.024422623 0.061585065 -0.010684025 0.012874253 0.014679234 -0.0113626495 -0.033846255 -0.05015955
-0.023665791 0.024108242 0.044640414 -0.016673991 0.059314337 0.060544405 0.04751543 -0.0049495767
-0.04199262 -0.042501397 -0.032666624 0.0016131337 -0.02100375 -0.007234134 -0.009430509 0.019747375
-0.026503574 -0.019056605 0.01358445 0.05700558 0.04470687 0.0138539765 -0.076780014 0.040916875
0.015064405 -0.029572664 -0.043833755 0.028490083 -0.021681013 -0.0018576058 0.0053419303 0.050419267
0.010496106 0.012752865 0.00034843688 0.012048841 0.053645216 -0.0020030702 0.06981863 0.047302358
0.0055273767 0.0049680523 -0.054791138 0.045930736 -0.012370681 -0.02869915 0.011541191 0.0475379
-0.042639233 -0.008174209 0.024218928 0.08693578 -0.001709531 0.0335179 0.07729131 0.08622297
0.04061589 -0.053878285 -0.026612213 -0.018857246 -0.017537193 -0.0069791498 0.033878963 0.031511378

conv2.bias f4 [64]
00000000: 8d5a edbc 5164 d6bc 3604 3abb 7522 72bd
00000010: 291c bbbc a914 743c 6055 813c 6a01 25bc
00000020: 3397 09bc 600c 11bd d08a 3d3c 5095 af3c
00000030: 9b97 71bc 53b8 cc3b 895d 55bb ec7a 99bb
00000040: 18b2 f7bb 9fc7 b23a 8a86 00bd 0ad0 a7bb
00000050: 9fde 313d 03d0 023d d54a 88bc 8ebe ffba
00000060: 7b33 003d bd28 64bc 8180 233c c501 16bb
00000070: 1311 ed3b 085c d8bc e076 463c c62d 76bd
00000080: 64d6 c33c ec41 5bba 542a 8fbb 5e64 26bd
00000090: db47 113c beb0 c8bb f9dd 223d 7cac 983c
000000a0: abfc adbc 1db3 d3bc 2ffc c6bb cf88 bb3c
000000b0: 8c0a 72bd 947e db3c 5732 363d 404a 4939
000000c0: f3c1 75bc a03e fa3c fe36 d7bc 1dda d43c
000000d0: da08 86bc 11c1 bb3c 1b15 8fbc 4be4 c7bc
000000e0: 5158 a63c 8eb7 003d 5361 dd3c 0b42 133d
000000f0: 42fb 063d 00c7 5cbc 828d e43b bfcd 12bd
-0.028973842 -0.026170881 -0.0028383858 -0.059114892 -0.022840576 0.014897504 0.01578778 -0.010071138
-0.008397865 -0.035412192 0.01156874 0.021433502 -0.014745618 0.006247559 -0.0032556972 -0.004683843
-0.007559072 0.0013639814 -0.031378306 -0.0051212357 0.0434252 0.031936657 -0.016637245 -0.0019511746
0.031299096 -0.013925728 0.009979368 -0.0022889238 0.0072347014 -0.026411071 0.012113303 -0.060102247
0.02390594 -0.000836401 -0.0043690596 -0.04062306 0.008867229 -0.006124585 0.03976247 0.018636934
-0.021238646 -0.025842244 -0.006072543 0.022892384 -0.05909209 0.026793756 0.0444816 0.00019196514
-0.014999854 0.03054744 -0.02627134 0.02598291 -0.016361643 0.02291921 -0.017466119 -0.02440085
0.020305784 0.03142505 0.027023947 0.035951655 0.032954462 -0.01347518 0.006974877 -0.035840746

fc1.weight f4 [32, 1024]
00000000: c9b2 20bc 401e d3bd 0b78 f3bd 7f61 c0bd
00000010: 6750 bc3c a188 90bd b15b dfbc b9ea b2bc
00000020: ba66 d43c 8231 563d f8ac f73c f419 4bbc
00000030: 5f89 a23c 3867 19bd 09db 5d3d b207 4b3d
00000040: 30cf 123d dfb9 4e3c aca8 acbc 8cdb cbbc
00000050: c0b1 133d 88f2 84bc abce 25bc 982c 24bd
00000060: b28e ccba 2eb8 ffbc 8b6f cc3c cd4e 6cbc
00000070: 90e1 9ebc 9fa9 96bc c5b4 22bc b280 d23b
00000080: 8533 253c 197b 193d 6cec 98bc 0307 73bc
00000090: d99a 173c d09a d23c 78d7 313b c12d 1cbc
000000a0: ceba 853c 8837 70bc 7546 023d 7988 bcbc
000000b0: 8fcf 493b 679a 8bbc 3017 903a be35 ddbb
000000c0: c449 843b 51a2 133d 6dbc 863c 57ef 643d
000000d0: 5b10 6a3d aaa3 103d b598 543c 01ca acbd
000000e0: 6490 b7bb 6c5e 0cbd 0528 783c ee46 e3bb
000000f0: 3831 f5bb 97bb 213c 847d 153c 65a9 05bb
00000100: c435 1c3c 8f2d 2cbd a654 2bbc 72ed 3abd
00000110: 94b5 ac3c 3558 0ebd 07be 4bba 345a 01bd
00000120: bd79 64bc 74a2 0abd 82b2 873c 630b 823b
00000130: 8867 a7bc a123 923c feae b6bb 3d63 05bc
00000140: cf17 013c 37d4 c6bc f29a 8cbc 8fef 85bc
00000150: 5006 a33c 2253 4dbb e84a 0bbb b7a1 923c
00000160: ecea 2ebc 4f6a fcbb eb5b d9bc f6e5 fd3b
00000170: 4019 b83c 712e 06bc 994f 8c3b 4a0c dc3c
00000180: b37e b3bc 96ba 273d 2adf 843d 1245 cf3b
00000190: 54cf 79bc 9d96 5fbc b963 00bd c44c dabc
000001a0: eeb7 23bc 799e eebc 813d 55bb 49a9 06bd
000001b0: 6307 0ebd 264b e7bc 8372 aa3c 2b73 f2bc
000001c0: 1737 96bc 34f0 2b3c 968d 233c 0f62 023d
000001d0: c0bd 21bc d061 db3c 0131 8ebc e369 043c
000001e0: 1655 973c 7a85 213d 1706 033c 9817 6dbc
000001f0: 1317 2bba 5f96 09bd a169 dc3c 0dff ccbb
00000200: 54e5 bdbc 7546 223d 1d5d b13c dd1d 143d
00000210: f494 463b 9c67 063c 5344 923c 1c4f fd3b
00000220: fa8f 113c f9a3 88bc 75a3 e1bc 5f56 61bc
00000230: 8b7c 493c ada3 993c 7556 d03c 835c c73c
00000240: 4d8d e0bc 85dd 84bb b291 d53c 6c68 323d
00000250: dba6 0a3d c852 8e3b 553e d3bc d44d 34bd
00000260: b8bc 0f3d 7717 ebbc 2188 063d 5171 d6bc
00000270: 413b c43b 77e3 fdbb 0bba 06bd bba6 77bc
00000280: 2cb0 28bd 5ea1 95bc 3b3f 423c e5a8 d63c
00000290: 3c50 7abb 925e 9cbc 3838 c43c c27a da3b
000002a0: f036 453b 2807 bfbc 23d6 4d3a 3581 103c
000002b0: 23bd e23b 0531 463d ad2f 183c ee68 98bc
000002c0: 83b3 1f3c c221 a0bb 6743 bbbc b7df 22bc
000002d0: ca62 103d b1d0 c8bb b3aa fabc 485f b43c
000002e0: 0184 1a3a dc2f a1bc 268c 983c e486 e43a
000002f0: f188 6f3c 4a20 0bbc 82db 003c 3950 b53c
00000300: eeb7 ed3b dcd9 873c ef3b a23c 0d24 333c
00000310: b05e 87bb 7a61 0e3c 9262 a0bc d4b8 fcbc
00000320: 2add 0e3d 0781 5dbc 1df2 6dbc 659b 7d3c
00000330: 73ec 00bd 5400 dcbc 5043 01bc 49c4 e93c
00000340: 0b45 293b c6f5 41bd f2e5 83bb aa18 2e3b
00000350: 9c08 fa3b 647f dbbc b450 db3a 8b12 bebb
00000360: 0592 173c 5b8c 0d3b 3d17 eabc 99c5 d23c
00000370: 3aee 883c d206 9d3c 27fa 6e3c 6d1f b03c
00000380: fc7b 46bd e2f9 a3bd 2765 9cbd 519a 61bc
00000390: 068c e23b d29f 233a 50e5 0e3b 7e0a 8e3c
000003a0: c0dc dd3c 8934 edbc 5a9c 80bb 45d6 a03b
000003b0: 2a19 683d a4f1 123d ccd4 2c3d 7b53 e43c
000003c0: b1ee 2e3c 80d5 173b 6904 133d d0d1 9b3d
000003d0: 7ffa 143d 78f4 503d 6ff9 ddbc 710c 04bb
000003e0: c9d7 023a 8056 d93c 9c66 cfbb 03a6 babc
000003f0: ee92 04bd 1c9c 6cbc 4cd1 daba 14bb 30bb
-0.009808251 -0.10308504 -0.11888131 -0.09393596 0.022987558 -0.0705731 -0.027265402 -0.02184044
0.02592789 0.052293308 0.030233845 -0.012396324 0.019840894 -0.037451953 0.054163966 0.049567886
0.03584212 0.012617557 -0.021076523 -0.024884962 0.036058187 -0.01622893 -0.010120074 -0.04008159
-0.0015606491 -0.031215753 0.024955532 -0.014423084 -0.019394666 -0.018391429 -0.009930794 0.006424033
0.010083084 0.03747091 -0.018667422 -0.014833215 0.009253227 0.025708586 0.0027136486 -0.009532393
0.016324427 -0.014661677 0.031805474 -0.023014294 0.003079388 -0.017041398 0.0010993239 -0.0067507913
0.004037114 0.03604347 0.01644727 0.055892315 0.057144504 0.035312332 0.012975861 -0.08436967
-0.0056019295 -0.034269735 0.01514626 -0.0069359457 -0.007482674 0.009871385 0.009124164 -0.0020395156
0.009534303 -0.042035636 -0.0104571935 -0.0456366 0.021082677 -0.03475209 -0.0007772152 -0.031580165
-0.01394504 -0.033846334 0.016564611 0.0039686426 -0.02043511 0.017839255 -0.00557506 -0.008141336
0.007879212 -0.024271114 -0.017163727 -0.016349582 0.019900471 -0.0031330069 -0.0021254364 0.017899377
-0.010676127 -0.0077031027 -0.026533088 0.0077483607 0.022472978 -0.008189783 0.0042819497 0.026861329
-0.021911 0.040949427 0.06487878 0.0063253725 -0.015247185 -0.013646749 -0.031345103 -0.026647933
-0.009992583 -0.0291283 -0.003253788 -0.032876287 -0.034675013 -0.028234076 0.020806557 -0.029595932
-0.018336816 0.010494281 0.009982487 0.031831797 -0.0098719 0.02678004 -0.017357351 0.008081886
0.01847319 0.039433934 0.007997057 -0.014470957 -0.00065265707 -0.03359067 0.026905837 -0.0062559904
-0.023180641 0.039617974 0.021650845 0.036161292 0.0030301185 0.008203413 0.017854845 0.007730378
0.008884424 -0.01667975 -0.027543763 -0.013753503 0.01229776 0.018754805 0.02543185 0.024336105
-0.027411127 -0.0040547275 0.02607045 0.043556616 0.033850532 0.0043433644 -0.025786558 -0.044019535
0.035092086 -0.028697712 0.032844666 -0.02617708 0.005988509 -0.007748063 -0.03289227 -0.015115435
-0.041183636 -0.018265422 0.011855896 0.026203582 -0.0038194796 -0.019088063 0.023952588 0.006667466
0.003009256 -0.023318842 0.0007852038 0.008819868 0.0069195195 0.048386592 0.009288711 -0.018604722
0.009747389 -0.0048868367 -0.022859288 -0.009941033 0.035250463 -0.0061283936 -0.030598974 0.02201809
0.0005894304 -0.019676141 0.018621515 0.001743522 0.014620052 -0.008491585 0.007864835 0.02213298
0.007254592 0.016583376 0.01980397 0.010933888 -0.0041311607 0.008690232 -0.019578252 -0.030849852
0.034878887 -0.013519532 -0.014523056 0.0154789435 -0.031475496 -0.026855625 -0.007889584 0.028535979
0.0025828506 -0.04735353 -0.0040252144 0.0026564994 0.007630421 -0.026794143 0.0016732425 -0.0058005503
0.009251122 0.002159855 -0.028575534 0.025728988 0.016715158 0.019168291 0.014586008 0.02149936
-0.048458084 -0.08006646 -0.07636481 -0.013769702 0.0069136648 0.00062417716 0.0021804161 0.017338987
0.0270828 -0.028955715 -0.0039248886 0.0049083554 0.056664623 0.035874978 0.042195126 0.027871838
0.010677026 0.0023168027 0.035892878 0.07608378 0.036371704 0.051014394 -0.027096478 -0.0020149017
0.0004991261 0.026530504 -0.0063293707 -0.022784239 -0.032366686 -0.014441516 -0.0016694455 -0.0026966976

fc1.bias f4 [32]
00000000: 17d6 ca3b e14a dcba a1d3 733c f5ad 67bc
00000010: 4969 a2bc 419e 4f3a 7116 a83c 0883 833c
00000020: b13a d9bc cf99 4a3b f4e0 d03c 06bb 573b
00000030: 4813 023d 25f3 943c b75d fa3c 1b38 89bc
00000040: bb02 6d3c a796 e03c 2e0d 953c 5855 ea39
00000050: 09f9 a63c c013 50bc 4dbc db3c 0007 8b3c
00000060: 6adc ebbc da8a 973c 25f2 b3bc c61d 9dbc
00000070: 6034 003c 2eb2 e33c 8fbb e63c 90c4 b2bc
0.0061900723 -0.0016806984 0.014881999 -0.014140596 -0.019825594 0.0007920005 0.020518513 0.016053692
-0.026517244 0.003091443 0.025497891 0.003291787 0.03175667 0.018182347 0.030562265 -0.016750386
0.014465983 0.027415587 0.018194761 0.00044695544 0.020382421 -0.012700021 0.026823187 0.016971111
-0.028791625 0.018498827 -0.02196605 -0.019179236 0.007824987 0.027794924 0.028165607 -0.021822244

fc2.weight f4 [10, 32]
00000000: 75f7 333d 59c2 393e eaf8 8d3d 0098 da3b
00000010: 2679 b53e 8ced c33e fc56 23be 8f43 193e
00000020: 462b d63e 1f4b 83be ae97 acbe a78c 813e
00000030: 56c9 47be 939a 05be a677 b3be 9c27 003e
00000040: c1d3 8d3d d865 323e 29f3 3ebe a491 a4bd
00000050: 8210 69be f1ae b33e dfed 73be 1a68 293e
00000060: 5a54 853e f5d4 603e 4328 febd f209 d9bd
00000070: 5ed8 c9bd 04f5 4abd c5df 82bd dfdc 2fbd
00000080: 3346 183e 2fbc 99be 7117 143d 9e9c 453d
00000090: b8ae a43e 53d8 2ebe d3a7 9e3e 1a48 3b3e
000000a0: 71ac 97be 7110 4abe 6926 3ebd 51f3 773e
000000b0: 740f 7dbe 3c06 0a3c 42cf 753e 1345 6c3e
000000c0: 0b00 8fbe e0e9 96be 018e 463d 2010 56be
000000d0: 320b b03e 1bb9 cebc ffe2 54be b7d0 4c3e
000000e0: bb71 903e 5474 c03d d969 893e 961d c6bd
000000f0: abd1 8f3e 10e4 ab3e 22ad d33c 2455 c53e
00000100: de43 b93d f9fc 063e c74a 9f3e 8bf7 71be
00000110: ca75 443e 5758 c13d c1b5 053e 9f9c 56be
00000120: 4f01 0a3e 1c9c 643e a49a 98bc ce8a 5a3e
00000130: e66d d7be a8cb 933e 19c6 07bf dd8a d7bd
00000140: 5bb6 57be 8c8d b0bd 2f18 01bb d351 803e
00000150: 8b48 d33e 5c19 c23d 3d49 11be 218b f5bd
00000160: b997 22be 930a a43e 4ea4 163f f132 1d3d
00000170: da56 c9bb 2a74 12be f8af b53c 1bac 2cbe
00000180: d2c9 0dbe c893 833e 60e0 83bd 4709 33be
00000190: a370 5e3e b433 5dbe 1cb3 273e 4a19 e2bd
000001a0: 4f29 acbe 6e53 553c 2d09 ccbe fed9 bebd
000001b0: 67b1 823e a0b8 1a3d 91ba bd3e f823 dbbe
000001c0: 14c1 7abe 3b15 a2b9 c42e ecbe 58f0 85be
000001d0: d4b5 643e cd5e 8e3e 6542 183d 2c36 a1bd
000001e0: 42b9 8b3e b6cf bc3e 0198 7bbe 7508 613e
000001f0: 4879 503e 4402 bcbe f9a4 c5be 7a1a e3bd
00000200: ec71 8c3e 1b8f 02bf f342 c03e ff78 44bc
00000210: f625 e43e a2eb 96be f811 c9bd 59ed 16be
00000220: 6327 6e3e 2fa1 1c3e a1ca c5be 2f17 3ebd
00000230: 3881 f73c d35c b03e 845c 3bbc 0caf b73e
00000240: ad11 9fbe a54e 2cbe f120 a43e c451 b6be
00000250: 9569 aabd 33dd afbe 5cc0 d33e 647c ae3d
00000260: 4ba1 f33d f32a f33d 1509 93be 8ad1 9c3e
00000270: 4e36 d8bd c2fd 96bd 6f6c f53d a873 4d3d
00000280: ed32 a93e dc16 9dbd 05e6 6c3e eb39 9dbe
00000290: 4e59 643d a00f 87bd 15f7 993e 2fa1 9a3e
000002a0: 0607 a3be 4833 41be 803d c53e 2a42 e9bd
000002b0: c80f 443e 954a afbe cc10 e9bd 5db4 813e
000002c0: a41f 91be 14c2 6cbe 1dfe 293d e8a6 e23d
000002d0: db9a 21be e30c 0d3d 93ee 44be 5bc8 4b3e
000002e0: af2b 443e 25f9 ffbe 8f45 15be 82be 5fbd
000002f0: 4438 e5bc 1f88 e0be 5bb8 653e 8988 0bbf
00000300: aec0 ac3e b003 adbe 1b95 80bc a103 cd3e
00000310: 4f4e 2abe 250e 52be f6cd 5c3e 2a3a 083f
00000320: 3b7d 763e b628 f33d 7908 15be ba50 853e
00000330: 9195 82bd 7aaa 0cbe 78af 0abe e406 60bd
00000340: e96f 4d3d 5907 d43d d90f 46be c306 713e
00000350: 980d 823d c346 4cbe 43e2 9cbe 2f08 da3e
00000360: 5dfe 333e 05d9 15be f862 60be 49e8 c03e
00000370: 7dbc 06be 175d 9fbd d69d 7abe 64ad 3bbd
00000380: c966 6cbc 20ce 54be 98b1 833e 1440 c3be
00000390: c51c 0ebe 24fb 2f3e 9075 b63e 29b4 64be
000003a0: 1717 683e 3554 7e3e 1a90 17be 4ed8 883e
000003b0: 2915 b23e 83dc 233e b652 813e a04c 613e
000003c0: 7eb3 033e 0666 aebe 3385 6e3e 911c c93e
000003d0: c95b 413d 4162 5d3e 8c43 babd 613f d73d
000003e0: 39ef a03e 5023 923e 7206 0dbe c92e bebe
000003f0: 79c0 75be c58a bb3d cbce 0a3e d224 3d3e
0.043937165 0.18140544 0.06932242 0.006670952 0.3544399 0.3826717 -0.1595115 0.14967178
0.4182989 -0.2564325 -0.33709472 0.25302622 -0.19510397 -0.13047247 -0.35052222 0.1251511
0.069251545 0.17421663 -0.18647446 -0.08035591 -0.22760203 0.35094407 -0.2382121 0.16543618
0.26040918 0.21956237 -0.12410023 -0.105976 -0.09855722 -0.04955007 -0.06390337 -0.04293525
0.14870529 -0.30026385 0.036155168 0.048245065 0.3216455 -0.17074709 0.30987415 0.18289223
-0.2962375 -0.19732834 -0.04642335 0.24213912 -0.24712926 0.008424338 0.24004844 0.23073225
-0.2792972 -0.29475307 0.04847527 -0.20904589 0.3438354 -0.02523475 -0.20789717 0.20001493
0.2821177 0.09397188 0.26838568 -0.09673612 0.2808965 0.33572435 0.025839392 0.3854152
0.09046148 0.13182439 0.31111738 -0.23629586 0.19185558 0.094406776 0.13057615 -0.20958184
0.13477062 0.22325176 -0.018628426 0.21342012 -0.42076033 0.28866315 -0.5303665 -0.10524533
-0.21065657 -0.08620748 -0.0019698252 0.25062427 0.41266283 0.09477493 -0.14188094 -0.11989427
-0.1587819 0.32039317 0.5884446 0.03837866 -0.0061443867 -0.14302126 0.022178635 -0.16862528
-0.1384652 0.25698686 -0.064392805 -0.17484008 0.21722655 -0.21601754 0.16376919 -0.1103998
-0.33625266 0.0130203795 -0.3985075 -0.093189225 0.25525972 0.03777373 0.370564 -0.4280088
-0.24487716 -0.00030914866 -0.4612943 -0.2615993 0.22334987 0.27806702 0.037172694 -0.078716606
0.27289778 0.3687722 -0.24569704 0.21975882 0.20358765 -0.3672048 -0.38602427 -0.110890344
0.27430665 -0.5099961 0.37551078 -0.011991738 0.44560212 -0.2947665 -0.098178804 -0.14738978
0.23257212 0.15295862 -0.38631156 -0.04640883 0.030212983 0.3444582 -0.011435632 0.35875738
-0.31068173 -0.16826876 0.32056382 -0.35609257 -0.083209194 -0.3434845 0.41357696 0.085198194
0.118959986 0.11873426 -0.28717867 0.30628616 -0.10557233 -0.07372619 0.11983573 0.050159127
0.33046666 -0.07670376 0.2313462 -0.3070825 0.05574923 -0.06594777 0.3007132 0.30201098
-0.31841296 -0.18867218 0.38523483 -0.11389573 0.19146645 -0.3423659 -0.11380157 0.2533292
-0.28344452 -0.2312091 0.041502107 0.11066991 -0.15781729 0.034436118 -0.19231634 0.19900648
0.19157289 -0.4999477 -0.14577316 -0.05462504 -0.027980931 -0.43853852 0.22433607 -0.5450521
0.33740753 -0.33791876 -0.015696099 0.4004183 -0.16631435 -0.20513208 0.21562943 0.5321375
0.24071209 0.11872999 -0.14554013 0.26038152 -0.06376184 -0.13736907 -0.13543499 -0.05469407
0.050155554 0.10352964 -0.19341983 0.23537736 0.06350249 -0.19948868 -0.30641374 0.4258437
0.175775 -0.14633568 -0.21912754 0.3767722 -0.1315784 -0.07781427 -0.24474272 -0.045819655
-0.014428803 -0.20781755 0.2572143 -0.38134825 -0.13878162 0.17185646 0.35636568 -0.2233435
0.22665058 0.2483681 -0.14801064 0.26727527 0.3478177 0.16002087 0.25258416 0.22001886
0.1286144 -0.34062213 0.23292999 0.39279607 0.047206674 0.21619512 -0.09094915 0.105101354
0.31432512 0.28542566 -0.1377199 -0.3714507 -0.23999204 0.091573276 0.13555448 0.18471077

fc2.bias f4 [10]
00000000: 4905 b83d 851c 353e 225c ecbd cde0 97bd
00000010: 7c64 23be c23a c3bd 4271 7abd 3c05 053e
00000020: af8c 16bb 3119 b73c
0.08985383 0.1768666 -0.115410104 -0.07415924 -0.159563 -0.095326915 -0.061143167 0.12990278
-0.0022972038 0.02235088
