pgd/model/pdg_net.pth (torch, 251649 bytes, 6 tensors)

conv1.weight f4 [32, 1, 5, 5]
000000 f1 00 5d 3e c3 17 a9 3e c9 7b 49 bd c7 a8 31 be
       0.2158239 0.3302594 -0.049190316 -0.1734954
000010 06 9d 39 be 58 12 d5 3e 8b df 44 3e a2 d9 ad bd
       -0.18126306 0.41615558 0.192259 -0.08488776
000020 22 d2 82 be e8 97 61 be ec 6c ee 3e b3 de e0 bc
       -0.25550944 -0.22030604 0.46567476 -0.027449941
000030 1a 6d 02 be 79 be 1e be 5b d2 f2 bd 2c 92 c8 3e
       -0.12736931 -0.15502347 -0.11856528 0.3917402
000040 b7 9e d2 3c ce b1 87 bd 6e c1 9a bd 7f 1c 3b be
       0.025710447 -0.066257104 -0.07556425 -0.18272589
000050 18 4f 9d 3e b0 18 39 bc 3e b1 67 3e 91 82 e3 bd
       0.30724406 -0.01129739 0.22626206 -0.11108888
000060 08 bd 0c bd ca e8 8e bd 07 1c 58 be 13 e2 06 bd
       -0.03435996 -0.06977995 -0.21104442 -0.032930445
000070 24 14 8b 3d 40 bd 84 3e fb 38 89 be 7b f5 78 be
       0.06790951 0.25925636 -0.26801285 -0.24312393
000080 21 2d ed 3d 10 32 04 bd 42 d4 e4 3d af cc ab bd
       0.11580873 -0.032274306 0.111732975 -0.0838865
000090 7c ae 04 be 23 de 52 bc 3b df 1e bd 53 05 bc 3e
       -0.12957186 -0.012870344 -0.038787108 0.36722812
0000a0 38 88 8b be 4d 6e 2e be 60 60 ba 3c 58 53 7f 3e
       -0.27252364 -0.17034264 0.022751033 0.24934137
0000b0 4a 53 91 3e 6e 4a 9a bd 5f 5c b7 bd 49 bf a4 3e
       0.28383857 -0.075337276 -0.08953165 0.3217719
0000c0 52 0b 0e 3e e7 04 da 3d 7d 84 bf bd c8 93 1b be
       0.13871506 0.10645466 -0.09351442 -0.15193093
0000d0 ef 8e 36 3e 7e ea cf bd 94 fc 9f 3d 57 65 0b bd
       0.17827962 -0.10152148 0.07811847 -0.034032192
0000e0 a0 16 1e bd cc c8 4e 3e 8e 1a 9e 3c 7f 02 b8 bd
       -0.038595796 0.20193785 0.019299772 -0.08984851
0000f0 e5 7c a2 bd 55 3c a7 bc d5 a2 28 3c b9 4a ec bb
       -0.07933978 -0.02041451 0.010292728 -0.007211056
000100 80 08 a5 3c 3e 50 8f 3d 38 56 b0 3c a3 7d 05 be
       0.020145655 0.06997727 0.021525487 -0.13036208
000110 38 a0 01 bd d7 06 b4 3d 4d 4f 4c 3d 93 df 18 bd
       -0.031646937 0.08790367 0.049880315 -0.037322592
000120 fd 5d fa bd 0e 77 2a be 99 38 4b be 5e 57 a5 bc
       -0.12224958 -0.16646978 -0.19845809 -0.020183261
000130 5a 1d 6a be 22 10 9c be 0c 60 86 bd ff af 3d bd
       -0.22862759 -0.30481058 -0.06561288 -0.04631042
000140 b4 e8 3c 3e d1 31 66 be 62 fd b6 be 72 c5 ec be
       0.18448144 -0.22479941 -0.3574019 -0.4624439
000150 fe b5 8c be c8 47 14 3c 2f 2a 20 3d dd af 41 be
       -0.274826 0.009050317 0.03910273 -0.18914743
000160 00 42 7f be b7 98 f6 bd 99 7c 8f 3e a8 d2 70 3e
       -0.24927521 -0.12040847 0.28024748 0.23517859
000170 9b 52 82 3e 7b a6 af 3e 8a 74 08 3e bb 05 a2 3e
       0.25453648 0.34306702 0.13325706 0.31644997
000180 a2 7b e1 3e 1f 33 07 3f ac 54 da 3e 55 dc 7a 3e
       0.44039637 0.5281238 0.42642725 0.24498112
000190 88 e9 a1 3c 57 c0 a0 3e 01 1e 43 bd 6e ea 83 3e
       0.019764677 0.31396744 -0.047636036 0.25764793
0001a0 c2 39 af bd d3 cd 0d 3e 27 0c b7 3e 0b ee 8b 3e
       -0.08555938 0.13848047 0.3575146 0.2733005
0001b0 5a ea fb 3e 73 96 ae 3e 6b 79 ac 3c ee 69 72 3e
       0.49202234 0.3409916 0.02105399 0.23673221
0001c0 77 9a c8 3e bd 77 cd 3e 55 26 04 3d d5 94 7d be
       0.39180347 0.40130416 0.03226312 -0.24763806
0001d0 57 ba e8 3d 2b 13 ba bd a9 c5 bc bd b9 aa c9 bd
       0.113636665 -0.09085687 -0.09217388 -0.09847016
0001e0 96 f4 c3 be 8e 3f ce be 41 b2 bd be 09 3d 29 be
       -0.38272542 -0.40282863 -0.3705006 -0.1652719
0001f0 16 88 e4 bc 93 66 bd bd 11 c1 8a bd 3c f5 43 be
       -0.027896922 -0.0924808 -0.06775106 -0.19136518
000200 4e b8 81 be f4 46 26 bd 2e d8 fc bd 2d fd db 3d
       -0.25335926 -0.04059501 -0.123459205 0.10741649
000210 19 32 5c bd 54 ac 32 3e de d3 fa 3d b5 bd d3 3d
       -0.053758714 0.1744855 0.12247442 0.10338918
000220 a9 2a 32 bd 89 c7 99 bd 6e d8 84 3e fe f1 eb b9
       -0.043497715 -0.075087614 0.25946373 -0.0004500299
000230 df 70 8d 3e 6a d7 f0 3d 91 73 6c 3e 2c 54 0c 3d
       0.27625176 0.11759837 0.2309096 0.03425996
000240 61 ac 8b bc 54 51 4e 3e 5d 35 98 3e c2 c0 fa 3d
       -0.01704997 0.20148212 0.29728213 0.12243797
000250 60 7b f1 bd b4 bc 08 be 3d 01 51 3e e5 2f 2d be
       -0.1179111 -0.13353235 0.20410629 -0.16912802
000260 7d d4 28 be 09 63 15 be f3 d5 4c be 02 69 53 3c
       -0.16487308 -0.1458856 -0.2000349 0.012903454
000270 eb 86 86 3d 55 66 b4 3c 1b 5d 71 be 54 4a 64 3c
       0.06568702 0.022021452 -0.23570673 0.013933737
000280 a8 4c 64 3e 24 fb af 3e 25 0a cd 3e 04 46 5c 3e
       0.22294867 0.34371293 0.40046802 0.21511084
000290 8c 70 b8 3d c7 3c 93 bd 02 da 9c bd fb af 3a 3e
       0.090058416 -0.07189327 -0.07658769 0.18231194
0002a0 17 fc a1 3e 5e bd aa 3e bd 4c 22 3d ec 52 4f be
       0.31637642 0.333476 0.039623965 -0.20246476
0002b0 55 6b ae 3d 70 a8 43 bd 54 4b 1c 3d 3b 08 2b 3e
       0.08516566 -0.047768056 0.038157776 0.16702358
0002c0 9c 3c 4a bd 4e 55 4f 3e 27 c6 0f 3e 6d 02 3f 3e
       -0.049374208 0.20247385 0.14040433 0.18653269
0002d0 02 81 28 3e 21 f7 17 3e bc 20 70 3e 1e d3 a4 3e
       0.16455463 0.14840366 0.23449987 0.3219232
0002e0 be a0 a7 3e f4 20 d4 bd 4a 79 05 3e 17 fe bb 3e
       0.32739824 -0.10357848 0.1303455 0.36717293
0002f0 fc 5a 18 3d 18 fb 8d bd 95 41 72 bd c5 1f b7 3e
       0.037196144 -0.06932658 -0.059144575 0.35766426
000300 ff c4 6c 3e 2e d1 54 3e 8f 16 85 be 95 cd f6 3c
       0.23122023 0.2078292 -0.25993773 0.030127326
000310 f2 9a d0 3c 32 b6 93 3d 48 a4 78 be 51 3a 67 be
       0.025464509 0.072124854 -0.24281418 -0.2258084
000320 1a 55 a3 3b 4c 1d fa bd 49 e6 3e be 50 d4 00 3e
       0.00498451 -0.12212619 -0.18642534 0.12580991
000330 78 33 11 be 58 a6 7d bc 53 40 8c 3b 0a bb 41 bd
       -0.1417979 -0.015481554 0.004280129 -0.047297515
000340 48 8a 55 3d 2e 4f 42 3e a2 a0 7a be 43 1b 6e be
       0.05213383 0.18975517 -0.24475339 -0.23252587
000350 c8 47 4c 3e 14 d5 be 3e 86 b9 c6 3c a8 6f 48 be
       0.19949257 0.3727194 0.024258386 -0.19573843
000360 b9 b2 05 3d 61 f6 c4 3e d0 36 cd 3e 72 9b 4a 3e
       0.032641146 0.38469222 0.4008088 0.1978586
000370 d3 0d 52 3e 28 dd c4 3e 02 71 cd 3e 82 0b 35 3e
       0.20513086 0.3844998 0.4012528 0.17680171
000380 8e f3 f5 bd 23 98 a6 3e eb 29 5e 3d 4d 24 af bd
       -0.12009345 0.32537946 0.054239195 -0.08551846
000390 18 ff 16 be 67 63 34 be f3 f3 fd 3d 10 ec 40 3e
       -0.14745748 -0.17616044 0.12400045 0.1884005
0003a0 3f c6 22 3d ec 92 2b be e0 74 6e bd 3d 65 4a 3e
       0.039739843 -0.16755265 -0.05821693 0.19765182
0003b0 ea 60 5b 3e da c6 0a be f1 12 d6 bd e0 aa 01 be
       0.21423689 -0.13552418 -0.104528315 -0.1266284
0003c0 b2 bc 27 3e d5 95 c9 3d 76 59 1c be c9 64 59 be
       0.16380575 0.09843031 -0.15268502 -0.21229853
0003d0 82 23 5b bd db 88 81 3c fc 31 e4 3d 71 ad 4d be
       -0.05350066 0.015812328 0.11142346 -0.20085694
0003e0 80 7c 00 bd 08 4e b5 bd 0b 78 71 bd 3d 50 60 be
       -0.031368732 -0.08852774 -0.058952373 -0.21905608
0003f0 83 a3 f0 bd 85 66 32 3e d6 15 17 3e 9e fa e6 bd
       -0.117499374 0.1742192 0.14754423 -0.1127827

conv1.bias f4 [32]
000000 de cc 27 bd 24 f4 b1 3c 5d 7c 1d be 21 18 ff 3d
       -0.04096686 0.02172286 -0.15379472 0.12455774
000010 f6 cf 77 3d 62 b8 66 ba 22 2c f8 ba e0 94 06 bc
       0.06050106 -0.0008801279 -0.0018934051 -0.0082142055
000020 20 c7 64 bb 84 d1 fe 3d 13 cc d2 3c 67 e9 92 bb
       -0.0034908727 0.12442306 0.025732076 -0.00448339
000030 d0 6c b1 3d f8 1c 58 3c 70 c4 25 be 19 9a 00 3e
       0.086633325 0.0131905 -0.16188216 0.12558784
000040 68 ac 08 3e 8a f2 29 3d b2 ae ce bc c5 23 62 3c
       0.13347018 0.04149107 -0.025229786 0.013802473
000050 20 fe c6 3d da d7 46 3d 28 3e 2c 3c f8 9e 0c bd
       0.09716439 0.048545696 0.010512866 -0.034331292
000060 59 46 4b 3e f5 9d bb ba bd f0 e2 3a 37 63 8e bc
       0.19851054 -0.0014314043 0.0017314177 -0.017381294
000070 d8 7c 20 be 8d a3 e2 3d 8d a6 ee 3d 1a f7 4c ba
       -0.15672624 0.11066351 0.11652861 -0.00078188034

conv2.weight f4 [64, 32, 5, 5]
000000 0d bd f4 bc 5b 6c 59 3d 17 4f 79 3b 8b 8d eb bc
       -0.029875303 0.05308185 0.0038041526 -0.028754016
000010 46 94 f3 bc ab 83 98 39 d4 b3 26 3c 2c 2a df 3c
       -0.029733788 0.000290898 0.01017471 0.027241789
000020 4b b0 fa bb 7c fd 76 3b 09 6f f6 bb 8d 12 63 bd
       -0.0076504103 0.003768771 -0.0075205606 -0.055437613
000030 7e 07 08 3d 49 69 a9 3c 22 e7 e7 3c a3 ce 43 bc
       0.03321027 0.020680087 0.028308455 -0.0119511215
000040 df 53 2f bc cd 1c ed 3c 91 d7 07 bc 90 b1 6e 3d
       -0.010701149 0.028944397 -0.008291141 0.058274806
000050 08 71 e2 bc 48 8f ea bb de a9 75 3c 0d 1e 2e bc
       -0.027641788 -0.0071581937 0.014994113 -0.010627282
000060 c5 01 85 3d ae 10 1d bb 54 b4 00 3c d0 88 3d bc
       0.06494478 -0.002396624 0.007855494 -0.011568263
000070 04 99 8f 3c 0b ff de 3c fd 26 a8 3c c6 58 00 bd
       0.017529018 0.027221223 0.020526404 -0.03133466
000080 32 f1 7c bd ec 10 cd bc 78 86 15 3d 44 3e 0a 3d
       -0.06175346 -0.025032483 0.036505193 0.033750787
000090 0e 42 b6 3c 1b 09 22 bd 68 ee 2d 3a e0 7b ad bc
       0.022248294 -0.039559465 0.00066349516 -0.021177232
0000a0 ab 94 2c 3c 77 54 c4 3c f4 49 30 bb 15 f6 37 bd
       0.010533492 0.023966057 -0.0026899548 -0.044912416
0000b0 c9 3a 79 bc 7e 88 6b bc f4 67 18 bc 4a 7f 04 bd
       -0.015211769 -0.014375804 -0.009302128 -0.032347955
0000c0 de e9 6b bc 99 17 8e bc 82 64 01 bc 9e 58 9a 3c
       -0.01439902 -0.017345237 -0.007897498 0.018841084
0000d0 de 66 87 3c c6 da dc 3c 8b 35 ea bb 6c bc 1b 3c
       0.016528543 0.026959788 -0.007147496 0.0095053725
0000e0 11 89 90 bc ee 53 47 3c a6 7c 0b bd 8f 08 fc bc
       -0.017643483 0.0121660065 -0.03405442 -0.0307658
0000f0 3c 0b ec 3c aa cb 71 3c e9 90 41 bc a3 14 81 3b
       0.02881395 0.01475803 -0.011814334 0.0039392277
000100 55 a1 26 3c ed 6d a4 bc 46 ff b3 3c c8 76 e5 3b
       0.0101703005 -0.020071948 0.02197231 0.007002685
000110 f4 1b d4 bc 2a a6 f1 3c ab 2a bc bb c8 91 21 bc
       -0.025892235 0.029498179 -0.005742391 -0.009861417
000120 d8 4c e5 bc 05 94 d7 bc 6e 76 f5 bc 5f d8 b1 3b
       -0.027990744 -0.026315698 -0.029963698 0.005427405
000130 e3 fb 81 bb df 95 84 bc 33 69 95 bd 13 d3 48 bc
       -0.003966795 -0.016184745 -0.07295456 -0.012257355
000140 21 2c 13 bd 1e e2 b4 bc 30 6a 97 3d f6 da 27 3d
       -0.035930756 -0.022080477 0.073933005 0.0409803
000150 fb 50 bd bc 7f d4 63 bc eb 73 be bd 9d 4a 2e 3c
       -0.023109904 -0.0139056435 -0.09299453 0.010637906
000160 be c7 4c 3d 82 38 d3 3c d4 be 0d bd 7a 72 42 bc
       0.049995176 0.025783781 -0.034605816 -0.011868114
000170 8f 63 01 bd 9f 04 14 3d 5b c0 47 3a 9a 2e 6b bd
       -0.031589087 0.03613722 0.0007619911 -0.05741749
000180 e5 16 72 3b f5 0c cc bc e2 f7 8a bd 6f fe 6c bd
       0.0036939916 -0.024908522 -0.06785561 -0.057859834
000190 68 3c 5d 3d d6 4d 3b bc 11 f2 8b bd 93 be 41 bc
       0.054012686 -0.011432132 -0.0683328 -0.011825222
0001a0 e5 6f 6f bc cb bf a1 3c 67 b5 2c 3d f3 1f ad bc
       -0.01461408 0.019744774 0.042165186 -0.021133399
0001b0 66 77 9d bd e3 e7 85 bc 14 91 18 3c 61 06 06 3d
       -0.07688789 -0.016345924 0.009311933 0.032720927
0001c0 86 59 bf 3b 17 e6 40 3b 13 d6 0f bd a1 ae b5 bc
       0.0058395294 0.002943402 -0.035116266 -0.022177996
0001d0 eb 8a ae 3c a7 e3 d0 3c 5a 4f 58 3c d2 4b 11 3c
       0.021306476 0.025499178 0.013202513 0.008868175
0001e0 63 6c 23 bd c2 98 1c 38 94 3c 7c 3d 58 a8 20 3d
       -0.039898288 3.7335565e-05 0.06158121 0.039223045
0001f0 1f db 0e 3d da 62 9c bc 2c ed 8e 3c b3 ee 5d 3c
       0.03487694 -0.019090105 0.017447077 0.01354568
000200 0d 1c 1c bb e5 68 c7 bb ba b5 18 3c 1e 0f 01 bb
       -0.002382043 -0.0060855024 0.009320671 -0.0019692848
000210 16 ff fe 3b f8 c2 1b bc 40 df 13 bd 03 90 2d 3c
       0.0077818735 -0.009506933 -0.03610158 0.010593417
000220 7a c1 2b 3c ba f8 52 bc 69 18 9b bc 48 86 d2 3c
       0.01048314 -0.012876684 -0.018932538 0.025698796
000230 e4 7e 10 39 73 d3 e0 bc 01 e9 54 bc 23 e5 3e 3b
       0.0001378018 -0.027444577 -0.012995006 0.0029128275
000240 33 65 42 3c a7 ea 29 3c 15 1b 8b 3c 6d 2f 09 bd
       0.011864948 0.010370887 0.016980687 -0.033492494
000250 37 c2 ec ba a2 54 0f bd 82 c3 23 3d be cc 07 3b
       -0.0018063252 -0.03499282 0.039981373 0.00207214
000260 fa 4f 50 bd e1 49 c3 bc d6 33 e2 bc 27 98 1f 3d
       -0.05085752 -0.02383894 -0.027612608 0.038963463
000270 60 56 6b 3c 30 e4 42 3d c8 eb 06 3b b1 c5 94 bc
       0.014363855 0.047580898 0.0020587314 -0.018160673
000280 12 9c 19 bd fc cf ed bb a7 d6 70 3d de 7d 93 3d
       -0.037502356 -0.0072574597 0.05879846 0.07201742
000290 4b 7b 99 3b 2b 68 e5 bc c5 d6 fe ba 82 31 3f 3d
       0.004683887 -0.028003773 -0.0019442668 0.046678074
0002a0 45 9a ae 3c cf 70 a9 bb ca 15 1e bb 71 62 35 bd
       0.021313796 -0.0051709185 -0.0024121874 -0.044283334
0002b0 11 77 8d bb bb 1f 2a bd 26 b0 1c bd 69 74 14 bd
       -0.0043171723 -0.041534167 -0.038253926 -0.03624383
0002c0 5d 07 41 bc 7e 97 d2 bc 79 ac 28 bb e9 e2 2b bd
       -0.011781541 -0.025707003 -0.0025737567 -0.041964445
0002d0 da 57 99 3c 4d ad 84 bc ad ee 9d 3c 5d a2 03 bd
       0.018718649 -0.016195918 0.019278849 -0.032137264
0002e0 f6 51 4d bc 35 e7 ab bb 2f f9 0a 3d 4a df c7 3c
       -0.012531748 -0.005246068 0.033929046 0.024398465
0002f0 33 62 5b bb 7d 95 01 bd 69 b7 32 bd a9 f0 e5 3c
       -0.003347528 -0.031636704 -0.043631945 0.028068857
000300 12 65 0c bc a6 07 64 3d 34 3f a1 3b 65 d1 7c bd
       -0.008569019 0.055671357 0.0049208645 -0.06172313
000310 da f9 ea bc 1e 30 37 3d fd 9d 3f 3d de d5 f8 ba
       -0.028683592 0.044723623 0.04678153 -0.0018984636
000320 a5 c2 9e bc 44 f6 88 b6 f2 5d 94 bc 1f f0 9e bd
       -0.019379923 -4.081785e-06 -0.018111203 -0.07760643
000330 37 f6 06 bd 65 a2 ac bc 87 fa 7a 3b 52 4a 05 bd
       -0.032949653 -0.02107353 0.0038296299 -0.03254158
000340 27 eb 00 bd b0 61 0e bd 0f f5 0c 3c 9d 35 11 3b
       -0.03147426 -0.03476113 0.008603348 0.00221572
000350 d5 cc 94 bb f0 f9 6f bc 1c 73 82 3c b9 86 5e bd
       -0.0045410194 -0.014646992 0.015924029 -0.0543277
000360 58 1e c8 3b 72 22 38 3d 55 9a 82 3d 15 a5 b9 ba
       0.006107133 0.044954725 0.06377093 -0.0014163578
000370 96 20 5f bb fa 61 a1 3c f0 59 12 bd 74 2e 1b bc
       -0.0034046522 0.01970004 -0.035730302 -0.0094715245
000380 8a ef 05 bd aa 40 8c 3c 3f ee 18 3d 23 9c 17 3d
       -0.032699145 0.017120678 0.037336584 0.037014138
000390 25 bf dc bc a6 e1 ba bc f1 68 08 bd b0 03 2a bd
       -0.026946614 -0.022812676 -0.033303205 -0.041507423
0003a0 5e 3a 6e 3d b6 02 b9 3c 65 db 81 3c 83 6d 7e 3c
       0.058161132 0.0225843 0.015851686 0.015529039
0003b0 63 8a b0 3b c5 09 dc 3c 84 95 4c ba 98 bd d6 bc
       0.0053875907 0.026860127 -0.0007804262 -0.026213452
0003c0 6a f7 dc 3b d2 ec 78 bb 54 c5 e2 bc 51 6f 4b bc
       0.0067433612 -0.0037982953 -0.027681984 -0.012416677
0003d0 6d c2 a5 bc db dd 46 3b 00 8e 79 3c 20 22 c1 3c
       -0.020234311 0.0030344639 0.015231609 0.023575842
0003e0 f0 d3 01 bd 1d 71 d1 3c 3a 14 e7 bc 2e 2e 8d 3c
       -0.03169626 0.025566632 -0.028207887 0.017233934
0003f0 ce 45 09 bc f2 a7 11 3c 31 cf a3 bc dc ed 18 bd
       -0.008378459 0.008890139 -0.019996257 -0.037336215

conv2.bias f4 [64]
000000 b3 65 f5 bc fc f6 5e 3c 17 80 f6 bc 25 a8 f9 bc
       -0.02995572 0.01360869 -0.030090375 -0.030475685
000010 cb 90 c1 3c 9f c2 b0 3a 24 38 0e bd 34 8c 71 3c
       0.023628613 0.0013485736 -0.03472151 0.0147429
000020 17 a5 dc ba c5 62 71 3c d4 e2 74 3c b4 b8 c3 3c
       -0.0016833869 0.014733021 0.014946658 0.023891784
000030 05 ee 3e 3c 14 74 87 bd e4 5a 3d bc ae 06 c9 bc
       0.011653428 -0.06613937 -0.011557315 -0.024539318
000040 b2 f8 7a bc ea 57 d2 bc 96 ad f2 bc 47 84 8d bd
       -0.015318083 -0.025676686 -0.029623788 -0.069099955
000050 00 b4 10 bc f5 f5 3c bd b8 05 b1 3c 0b fb 9e 3c
       -0.008831978 -0.046133 0.021609172 0.019406816
000060 74 80 5d bc 15 fb c0 bb 88 1f 72 3c 95 6c 65 bd
       -0.013519395 -0.0058893063 0.014778025 -0.056011755
000070 c7 3c 76 3c 58 6a 56 3d a4 e3 7c 3c a7 94 ce bb
       0.015029139 0.05234751 0.015435133 -0.006304342
000080 37 9a 23 3d fa 24 40 bb a1 68 01 bd c9 ea 56 3b
       0.039941993 -0.0029318915 -0.031593923 0.0032793751
000090 ad 0d 10 bd 8f c3 1d bd 40 1c 85 bd ad a9 24 3c
       -0.035169292 -0.038516577 -0.06499529 0.0100502195
0000a0 0d f1 20 3d bb 0a 0e bd c5 19 b3 bb 7a 39 fa 3b
       0.039292384 -0.034678202 -0.0054657185 0.0076362463
0000b0 13 fa 02 bd ef b2 dc 3c 4e 62 38 bd 73 74 b1 bb
       -0.03197677 0.026940791 -0.045015626 -0.005415493
0000c0 5c 09 11 bd 3b 3e 52 bd cc c3 01 bd 2e 9a b3 ba
       -0.035409316 -0.05132888 -0.031680867 -0.0013702565
0000d0 e1 d7 1b bd 23 1d ba bc bc 2f 21 bd ee 35 20 3c
       -0.038047675 -0.022718972 -0.039352164 0.009778483
0000e0 0a a7 19 bc 0f 9b 98 bc 6b 85 cb bc 01 a6 ba bc
       -0.009378204 -0.018628625 -0.024843892 -0.022784235
0000f0 10 30 45 bd b2 61 0c bc ab 47 af 3b d4 b5 15 bd
       -0.04814154 -0.008568214 0.0053491197 -0.036550358

fc1.weight f4 [10, 1024]
000000 d7 d8 24 bd 4f c4 25 3b bf 0d e4 3d 5c 3e b0 3d
       -0.040245857 0.002529401 0.11135434 0.08605644
000010 e0 4e 82 bc 81 0b 22 bd f0 62 a2 3d ba c0 7c 3d
       -0.015906751 -0.039561752 0.07929027 0.061707236
000020 66 b1 41 3c 84 96 1e 3d 93 86 08 bd df aa 8f bc
       0.01182208 0.03871776 -0.033331465 -0.017537532
000030 19 d5 49 bc e6 ba cf 3d 45 bc 2d bb d0 92 d6 bd
       -0.012318873 0.1014307 -0.0026509922 -0.10477221
000040 cb c4 4a 3c 35 5c da 3c 86 77 4d 3c 55 7a 01 bb
       0.012376021 0.026655296 0.012540704 -0.0019756753
000050 c8 3f 9d bc 74 fb d5 3c bb f4 3f 3c f0 36 fa bc
       -0.019195452 0.026120879 0.011716063 -0.030543774
000060 1e c7 44 3c 0d cf 1c bc 35 0f 68 38 41 f2 f4 3b
       0.012010364 -0.009570849 5.5327273e-05 0.007475168
000070 ca a5 f3 3b 78 4a 97 bc 66 9c b1 3c fe fe 6e bc
       0.007435535 -0.018468127 0.021681022 -0.014587162
000080 87 dc 44 bd ad 40 9a bc 76 4e 9d 3d 70 e0 74 bc
       -0.048061874 -0.018829668 0.07680981 -0.014946088
000090 cd a7 92 bc f5 4d 05 3c f5 0c b0 bc e9 50 4f bd
       -0.01790228 0.008136262 -0.021490553 -0.05061427
0000a0 8d 56 ac bd 54 4a ad bc 4d ed ef bd 67 5b f5 3b
       -0.08414946 -0.021153606 -0.117151834 0.0074877026
0000b0 e7 00 84 3a d3 86 45 bc a7 8b 3a 3d 40 c0 7e 3d
       0.001007107 -0.01205607 0.04554334 0.062195063
0000c0 e4 39 1d 3b 9b ab 8b bd b5 08 6e bc 5a 74 75 bd
       0.0023990804 -0.068198405 -0.014528443 -0.059925415
0000d0 7c 35 8d 3d 12 81 27 3d 7d 8c 46 3c 12 bd d2 bc
       0.06894967 0.040894575 0.012118456 -0.025724921
0000e0 c0 8d 03 3d bc cf fd 3d ed e9 19 3c cd de 24 3d
       0.032117605 0.12393138 0.009394151 0.040251542
0000f0 bc 33 ef 3c 04 bc be bb 23 f5 21 bd e7 1c a0 bd
       0.029199474 -0.005820753 -0.03954042 -0.07818013
000100 74 de ed 3c 8a 3c a5 3c ba c4 d6 3c d6 cd 41 3c
       0.029036738 0.020170469 0.026216853 0.01182886
000110 e1 e8 11 bc 13 31 18 bc 8f 81 c9 bb a0 84 97 3b
       -0.00890562 -0.009289044 -0.006149478 0.0046239644
000120 88 7e eb 3c 05 34 9e 3c 1a 7f 02 bd 88 40 f5 bc
       0.028746858 0.019311914 -0.031859495 -0.029937997
000130 1f 50 05 bb 85 2d b4 bb 8f b8 c3 bc 6d 83 c1 38
       -0.0020341945 -0.0054985904 -0.023891715 9.227437e-05
000140 4b 38 87 3b 9a e0 f1 3c 97 bb 02 bc 77 5c 36 bd
       0.0041265837 0.029526044 -0.007979295 -0.044521775
000150 b9 9f f2 3b c6 2e d8 bc 13 bd fc bc cd fc 0c bd
       0.0074042943 -0.02638949 -0.030851876 -0.034420777
000160 cc 6c 0a 3c 1a b6 5a bc 13 e7 81 bc b1 36 14 bb
       0.008448791 -0.01334908 -0.015857255 -0.0022615606
000170 f5 ea 81 3c cf 30 a8 3c 3b ff 15 3d a8 7a 84 3d
       0.015859107 0.020531086 0.03662036 0.06468707
000180 98 0c b1 bb 22 c1 0e bd 4a 75 6a 3b ac 89 09 3e
       -0.0054031126 -0.034852155 0.0035775476 0.13431424
000190 7f 9a a5 bd 17 f8 0f ba 21 20 95 3c 66 f9 1d 3d
       -0.080861084 -0.00054919854 0.018203797 0.038567923
0001a0 ef 40 d8 bc bf 2d 83 bd 1f f6 24 be a6 fc 9a 3c
       -0.02639815 -0.0640521 -0.16109513 0.0189193
0001b0 39 f4 e3 bc 60 da 88 bd 18 35 59 bd 19 9f dd bd
       -0.027826415 -0.06682277 -0.05302915 -0.10821361
0001c0 af bf 98 bc 9f c1 17 3c 38 52 df bb 1c 53 f6 bc
       -0.01864609 0.009262471 -0.006815221 -0.030068927
0001d0 a9 5e 56 bd fa 34 0f bd b9 d6 8b bb 1d 45 07 bd
       -0.05233637 -0.03496263 -0.0042675403 -0.033024896
0001e0 23 ff c5 bd 40 b6 20 3b e5 b1 84 3d a9 db 99 3d
       -0.09667804 0.0024522692 0.06479243 0.075126
0001f0 8c c6 5f bd e6 19 96 3d 2d 76 8c 3d 0c fb 68 3d
       -0.05463271 0.073291585 0.06858478 0.056880042
000200 f9 39 cb 3c 99 44 d7 3d 5b ba 93 3d 9a fd 66 3d
       0.024807917 0.10511131 0.07213279 0.056394197
000210 1a 1e 0f be 8a c8 f6 bd 50 4d 82 3d d9 b2 e2 3c
       -0.13976327 -0.120499685 0.063624024 0.027673172
000220 55 73 6a bd d6 7d 35 3c 7e 68 d4 bc 11 ed bf bd
       -0.057238895 0.011077365 -0.025928732 -0.09371389
000230 48 49 06 3d 6f 8e 4d 3e 21 b7 5d 3d 45 6b 09 bd
       0.03278473 0.20073865 0.054129723 -0.033549566
000240 40 ba e9 bc a3 36 ab bc 0f b8 4e 3d 75 9e 90 3d
       -0.028531194 -0.020900076 0.0504685 0.07061473
000250 1f 35 84 bd 51 bb 91 3c 03 eb 31 3d bb a2 86 3d
       -0.064554445 0.017789515 0.043437015 0.06574007
000260 69 81 62 bc 47 1a 95 bd 03 cf 1f 3d 30 e6 05 3c
       -0.013824799 -0.07280403 0.03901578 0.008172557
000270 8f 52 99 3d c2 7a 0d bc 46 64 c1 bd 4b a8 5e bc
       0.0748645 -0.008635225 -0.09442954 -0.013589929
000280 d2 25 a4 3c 67 a1 73 bc 77 ad ad bb be 7d 8e 3d
       0.020037565 -0.014870024 -0.0053002196 0.06957577
000290 87 c9 a2 bc 3c 3a 31 bd 8c 56 e0 ba 5e d3 7d 3d
       -0.019871486 -0.043268427 -0.0017115637 0.061969154
0002a0 ea 27 10 bb 2b 8d 68 bc 23 10 b9 bc fc de 66 3c
       -0.0021996447 -0.014193813 -0.022590702 0.01409125
0002b0 7a 20 80 bc 35 0e dc bb ea e7 a3 bc 5f 64 8a bc
       -0.015640486 -0.006715561 -0.020008046 -0.016893564
0002c0 4d b2 72 3c 9a 04 b7 bc 3a 12 80 3c ff d9 27 3d
       0.014813018 -0.022341061 0.015633691 0.04097938
0002d0 da 5a e7 bd 8f 10 10 bc ba 76 06 3d df 1f 32 3d
       -0.112966254 -0.00879301 0.03282807 0.043487426
0002e0 36 e5 d9 bd c0 85 1f bd 6a 5c 96 3d 75 01 c8 3c
       -0.10639422 -0.038945913 0.07341845 0.024414757
0002f0 8e 9b 9d bd 11 d5 d3 3b 3b 16 ff 3c fb 55 01 3d
       -0.07695685 0.0064646085 0.03113853 0.031576138
000300 3a 4e ba 3c f2 bb 84 bc 38 53 ad bc 0e bf 23 3c
       0.02274238 -0.0162029 -0.021157846 0.009994281
000310 7b e1 98 bb 0c d3 0c 3d 96 1b ff 3c 5a b7 11 bc
       -0.0046655512 0.034380957 0.031141084 -0.008893812
000320 07 39 b5 3b 2b 27 12 3d 5d f7 01 bc 66 c9 3c bb
       0.00553048 0.035681885 -0.007932511 -0.0028806566
000330 5b b0 33 3c b6 9b 7d bc c3 ad 06 3c 8e ce 1b 3a
       0.010967339 -0.015479019 0.008220139 0.000594356
000340 f1 d4 44 bd 42 41 01 bd c2 65 1a bd 3d 49 d6 3c
       -0.04805464 -0.031556375 -0.0376947 0.02615797
000350 1a b7 37 3d c9 d1 50 3d 24 94 3c bd 15 07 a4 bc
       0.044852354 0.050981317 -0.046039715 -0.020022908
000360 64 df 13 3d 70 2f d8 bc b8 93 a9 bc 08 18 bb bb
       0.036101714 -0.026389807 -0.02070032 -0.005709652
000370 f6 a2 73 3c a0 c2 0c bd d5 b4 ae bc 55 64 ab 3d
       0.014870396 -0.034365296 -0.021326462 0.08368746
000380 ad 77 98 3c a4 0a 59 3d 03 22 78 3d 18 8f c4 bc
       0.018611753 0.052988663 0.06057931 -0.023994014
000390 d8 f3 a6 3d 33 78 71 3d ca ef c2 bd 47 a1 18 3d
       0.08151978 0.05895252 -0.095183924 0.03726318
0003a0 9e 75 f5 3d 77 30 2d bd 3a 2e a9 bd 4d 46 80 3d
       0.11985324 -0.042282548 -0.0826077 0.06263409
0003b0 d2 d9 a9 bc f0 e5 0e be a9 58 33 bd a3 c6 4f bd
       -0.020733748 -0.13954902 -0.043785725 -0.050726544
0003c0 2a 2d 86 3d 5c 44 30 3d 38 71 5a 3c ab 16 a7 ba
       0.06551583 0.043033943 0.0133326575 -0.0012747844
0003d0 8e d0 00 bc 07 45 03 bd 5d 1c 18 bc d6 b6 42 bd
       -0.007862223 -0.03204825 -0.009284106 -0.047537647
0003e0 9d a9 4f bd c9 47 12 3d fc c0 ad bc 57 13 1f bd
       -0.050698865 0.03571299 -0.021210186 -0.038836803
0003f0 5d 28 d9 3c 06 3c 00 3e b4 71 ba b9 36 13 03 bd
       0.026508505 0.12522897 -0.000355614 -0.032000743

fc1.bias f4 [10]
000000 bf 7b ac 3c 8f 4e cc 3c 86 0f 4d 3c 0f a3 9d bc
       0.0210551 0.024939803 0.012515908 -0.019242791
000010 1e 5c e2 bc 4a ce de 3c b9 f3 16 3b a2 2e 0b bd
       -0.027631816 0.027197976 0.0023033454 -0.03398002
000020 1b ad 33 3d 52 bc f7 3c
       0.043866258 0.030241165
