model/reassure_format/2_9.pt (torch, 96203 bytes, 89 tensors)

target_net.all_linears.0.weight f4 [50, 5]
0.04376218 -1.7694349 -0.08221544 0.25273892 0.1625998 0.19299184 1.5550011 -0.17624803
0.33596724 -0.40685427 0.001786369 -0.05940228 -0.0035296706 0.003928296 -1.9351646 -0.011626155
0.6747433 0.5054643 -0.25396064 0.09887787 -2.3920736 0.0437634 0.04516367 -0.06258598
0.019448826 -0.104819074 -2.113027 -1.689138 0.52053875 -0.3045147 -0.016577309 0.101867445
-3.0707262 0.20885333 0.0013168325 -0.090478554 -0.011185122 0.017206188 -0.7497745 0.42083415
-0.007597567 -2.4585314 -0.24213211 0.38650832 -0.2649418 -0.69894916 0.041738167 0.03059213
-0.1155058 -0.21500328 -0.60983044 0.10825386 -0.079976566 0.7893928 -0.8971988 0.07559543
-0.59417534 -1.7419105 -0.5075198 0.564375 0.0235938 1.3226633 0.06602763 0.1871446
0.089702 0.3225617 -1.3982604 0.13417234 0.2954972 -0.54467314 -0.13282123 0.03218947
0.042871673 0.12676185 0.045591813 -0.07005112 2.6267958 0.7637153 0.08070281 -0.25374958
0.46862662 0.24673603 -0.8545638 -0.04489427 0.15977748 -2.6463203 0.12400074 -0.23367462
0.104153074 0.036646616 -0.11622789 0.23367377 -0.15242258 -0.8521455 0.9125194 -0.6058768
0.111159265 1.0663946 0.29548928 0.47723213 0.06272179 1.038397 -1.3886408 0.0897196
-0.20464638 -0.23496874 -0.17867711 0.32209823 -0.6644984 0.764674 0.0029815736 -0.85926
1.146193 -0.14359283 0.3520973 0.0054768035 0.17978191 0.049301863 -1.0753841 -0.22018722
-0.01600938 -0.71866447 -0.13333602 0.16790803 0.34233433 -0.027867736 0.5535459 0.21945994
-0.065290295 0.19733216 -0.0012811057 0.95614845 -1.2004726 -0.10087048 0.2771073 -0.0026922822
1.0911508 -1.0526551 -0.0041890047 0.26013342 0.018064942 0.27337998 -0.3156839 -0.13828553
-0.6748103 -0.009566446 -1.4302338 1.4850031 0.40807897 -0.60252774 -0.03358313 1.1416575
-0.27726457 0.06284574 -0.6497957 -0.74388283 -0.08674678 -0.0342658 0.15337312 0.073920555
-0.031036803 -0.58327717 0.7766355 0.15395987 -0.41679895 0.0075555965 0.8688832 -1.0752624
-0.10993811 0.2050649 0.014443357 -0.5498554 1.5289761 0.055576608 0.25694492 -0.041039106
-0.40123445 -0.32638294 -0.24175769 -0.10625459 0.017071087 1.8396385 0.24218073 0.20729433
-0.10513097 0.047852807 0.8625348 -1.400726 0.0012427662 0.79281485 0.04749545 -0.4028929
-0.056861106 -0.19582061 0.2299695 0.4242636 1.052344 -0.7779606 -0.16911249 0.32468265
0.04800099 0.21555641 0.12309398 -0.2087239 0.17187275 -0.17018506 0.8975923 -0.8432695
0.068129286 -0.36684984 -0.260425 -1.6666353 2.1517584 -0.21750088 0.80796677 -0.27340084
1.0948938 -1.7914784 -0.12618944 0.3904815 0.13563927 1.9391476 -0.24041575 0.3749512
-0.5058166 0.069627665 0.25250983 -0.36460018 -0.4282957 0.46509826 -0.029451594 -0.08966087
-1.7339067 0.69260526 -0.6461573 0.028977871 0.55987644 0.8881093 0.46815184 0.039530687
-0.0278732 -1.2656574 1.5153462 -0.06926916 0.39540514 2.0437744 -0.034513265 -0.0073146513
0.0076012556 0.050728656
00000000: f93f 333d d87c e2bf 9260 a8bd ff66 813e
00000010: 9080 263e a79f 453e 470a c73f 5d7a 34be
00000020: e603 ac3e 344f d0be 9924 ea3a ce4f 73bd
00000030: 0c52 67bb efb8 803b 79b3 f7bf a17b 3ebc
00000040: fabb 2c3f 1c66 013f 2107 82be 7b80 ca3d
00000050: bc17 19c0 4041 333d 8afd 383d 142d 80bd
00000060: 2553 9f3c 62ab d6bd d63b 07c0 ad35 d8bf
00000070: 0742 053f 5ae9 9bbe 23cd 87bc e19f d03d
00000080: c786 44c0 a6dd 553e 9199 ac3a d24c b9bd
00000090: cd41 37bc fef3 8c3c 39f1 3fbf 9377 d73e
000000a0: 03f5 f8bb 9458 1dc0 7bf1 77be 6be4 c53e
000000b0: 74a6 87be 55ee 32bf a4f5 2a3d 599c fa3c
000000c0: 4e8e ecbd d229 5cbe d91d 1cbf 33b4 dd3d
000000d0: c1ca a3bd a615 4a3f d2ae 65bf c7d1 9a3d
000000e0: e01b 18bf ecf6 debf d1ec 01bf e17a 103f
000000f0: c947 c13c 084d a93f 7e39 873d d6a2 3f3e
00000100: afb5 b73d cf26 a53e 32fa b2bf 7964 093e
00000110: 694b 973e b36f 0bbf 4a02 08be 1bd9 033d
00000120: 359a 2f3d dccd 013e 7bbe 3a3d f676 8fbd
00000130: 6c1d 2840 d982 433f 8447 a53d 77eb 81be
00000140: d4ef ef3e 5fa8 7c3e b1c4 5abf 0ee3 37bd
00000150: b59c 233e 505d 29c0 1af4 fd3d 6648 6fbe
00000160: 354e d53d c31a 163d e308 eebd 2d48 6f3e
00000170: aa14 1cbe 3526 5abf df9a 693f be1a 1bbf
00000180: 78a7 e33d 9e7f 883f 5f4a 973e c557 f43e
00000190: 4874 803d 31ea 843f fbbe b1bf e9be b73d
000001a0: d28e 51be a59b 70be 22f7 36be 0fea a43e
000001b0: 911c 2abf adc1 433f 8166 433b 77f8 5bbf
000001c0: 74b6 923f 000a 13be 1946 b43e c276 b33b
000001d0: c018 383e c0f0 493d 30a6 89bf c278 61be
000001e0: 1a26 83bc 65fa 37bf 3d89 08be 15f0 2b3e
000001f0: 7246 af3e e14a e4bc 2fb5 0d3f 1bba 603e
00000200: ebb6 85bd 7111 4a3e c6ea a7ba 25c6 743f
00000210: 16a9 99bf 2f95 cebd 02e1 8d3e 0071 30bb
00000220: d4aa 8b3f 67bd 86bf eb43 89bb 3530 853e
00000230: eefc 933c 76f8 8b3e 52a1 a1be b99a 0dbe
00000240: 5ec0 2cbf 95bc 1cbc e711 b7bf 9514 be3f
00000250: baef d03e 423f 1abf 778e 09bd d521 923f
00000260: 9ff5 8dbe 44b5 803d 0359 26bf 1b6f 3ebf
00000270: 4ca8 b1bd 4c5a 0cbd d80d 1d3e a963 973d
00000280: e540 febc a751 15bf 96d1 463f a8a7 1d3e
00000290: ac66 d5be f094 f73b 216f 5e3f 33a2 89bf
000002a0: 3b27 e1bd 88fc 513e d4a3 6c3c 53c3 0cbf
000002b0: 7db5 c33f 4ca4 633d 498e 833e 9f18 28bd
000002c0: 9a6e cdbe aa1b a7be 548f 77be 029c d9bd
000002d0: aad8 8b3c 4679 eb3f 3afe 773e f744 543e
000002e0: e84e d7bd 4e01 443d 15cf 5c3f fd4a b3bf
000002f0: 50e4 a23a eaf5 4a3f 978a 423d fa47 cebe
00000300: 31e7 68bd 3385 48be 207d 6b3e 1439 d93e
00000310: 35b3 863f 6d28 47bf d32b 2dbe ce3c a63e
00000320: b09c 443d d2ba 5c3e b218 fc3d b8bb 55be
00000330: 69ff 2f3e fe44 2ebe 9cc8 653f 83e0 57bf
00000340: 5e87 8b3d bed3 bbbe 6d56 85be 4e54 d5bf
00000350: 69b6 0940 8db8 5ebe e9d6 4e3f 32fb 8bbe
00000360: 7b25 8c3f 2a4f e5bf ce37 01be 31ed c73e
00000370: 05e5 0a3e fd35 f83f 8c2f 76be 9bf9 bf3e
00000380: 327d 01bf f398 8e3d f848 813e e0ac babe
00000390: 9349 dbbe 5c21 ee3e 7844 f1bc 1ea0 b7bd
000003a0: a8f0 ddbf 944e 313f 916a 25bf 0063 ed3c
000003b0: 1054 0f3f 225b 633f 99b1 ef3e eeea 213d
000003c0: 5656 e4bc 1001 a2bf ddf6 c13f fddc 8dbd
000003d0: 8b72 ca3e 33cd 0240 c85d 0dbd beaf efbb
000003e0: f413 f93b dac8 4f3d

target_net.all_linears.0.bias f4 [50]
0.32283223 -0.23930453 -0.67046523 0.103296235 -0.37385046 -0.0935129 0.23546104 -0.11067084
0.017937936 0.018002072 -0.06349011 0.096029416 0.21127269 -0.20731686 0.024535075 -0.29421306
0.12431329 -0.6606139 0.1281526 -0.022531997 -0.32453823 0.06414567 -0.48750114 -0.41754964
-0.12980837 0.094459236 -0.46173245 -0.3582258 -0.36094388 -0.27349102 -0.22393873 -0.07351745
0.12555256 -0.5024201 0.13920808 0.11832478 0.05342127 0.21750528 -0.0014000473 0.032821957
0.03196657 -0.033151656 -0.33593458 -0.21130778 -0.12766926 0.10448496 0.19744033 -0.016760021
-0.50775355 0.5677194
00000000: 444a a53e 3f0c 75be 9ca3 2bbf fa8c d33d
00000010: 5469 bfbe b183 bfbd b31c 713e 65a7 e2bd
00000020: 94f2 923c 1579 933c 1a07 82bd 12ab c43d
00000030: de57 583e df4a 54be c8fd c83c 18a3 96be
00000040: f797 fe3d fe1d 29bf 6f3a 033e 0695 b8bc
00000050: e029 a6be ce5e 833d c099 f9be 11c9 d5be
00000060: 7cec 04be d873 c13d 3268 ecbe 5f69 b7be
00000070: a3cd b8be 0407 8cbe 3250 65be 5190 96bd
00000080: da90 003e 9b9e 00bf 908c 0e3e 4354 f23d
00000090: 43d0 5a3d b4b9 5e3e cb81 b7ba 5170 063d
000000a0: 61ef 023d 08ca 07bd 9eff abbe 1161 58be
000000b0: bbbb 02be 36fc d53d cc2d 4a3e 504c 89bc
000000c0: 23fc 01bf 0f56 113f

target_net.all_linears.1.weight f4 [50, 50]
-0.24021101 0.44328973 -0.24020654 -0.23077898 0.27031133 -0.013388431 0.005524187 -0.26033574
-0.4615488 0.37065127 0.64862853 -0.119697064 -0.33894092 -0.2524474 0.09000842 -0.017616548
0.5983294 0.26342165 -0.041362636 0.60835177 -0.55108696 -0.6163609 -0.02749886 -0.47170666
-0.028133119 -0.6164231 -0.7042668 1.0412949 0.68881345 -0.08771046 -0.12888555 0.18500043
0.5341565 -0.3951796 0.17748198 -0.8186336 -0.73476046 0.13899556 0.015178986 0.046867836
0.2344456 -0.16888748 0.17697693 0.4205585 -0.10186416 0.376807 0.29354873 0.01557824
0.060683988 -1.5420715 0.0257361 -0.0267017 0.00422067 0.03619 0.0381616 -0.0472989
0.000991837 0.0385129 0.0122661 -0.00457941 0.0280929 0.0225725 0.00540007 -0.00991005
-0.000590786 0.0116036 -0.0261224 -0.0432062 0.029912 -0.0141413 0.0107733 -0.0405311
-0.0118146 -0.0521276 -0.0446955 -0.0537016 0.0449237 -0.0163312 0.0266759 0.0138447
0.0142462 -0.0534819 -0.00461764 -0.0261813 -0.0571514 -0.0546886 -0.0493981 -0.00440978
-0.0413388 0.000506088 0.015705 -0.0236796 -0.0411855 0.00174631 -0.000697062 -0.0573225
-0.037554 -0.00831662 0.0352304 -0.0235572 0.044288136 -0.9397575 -1.0467756 -1.7655658
-1.856092 -0.37568215 -3.4862974 0.68627834 0.66341615 -0.8329823 -0.9721264 -0.2138424
-1.2138128 0.34014618 0.3196722 -3.7915785 0.19099711 -0.7072552 -0.6410693 0.018521572
0.0372316 -0.29404134 1.8287897 -2.2418344 0.08001211 -1.8665233 0.0200265 -0.00945235
-0.0127107 1.7915093 -0.021491738 -0.7701869 0.87750095 0.00507039 0.7390106 -1.2920336
-0.20648934 -0.86608464 0.2713072 0.076141134 0.5001558 0.132053 1.0938671 0.054307
-0.41309083 -0.85895395 0.30435663 -1.0327414 0.67135453 0.084920816 -0.00926302 -0.0131989
-0.0182535 -0.00336816 -0.00585637 0.0336115 -0.00841716 -0.0417287 -0.0560062 -0.036431
0.0131731 -0.0307997 0.0127109 0.0341977 -0.057256 0.00948261 0.00629837 0.0141503
0.0227117 -0.0422178 0.00371888 -0.0304077 0.0494487 -0.0337449 -0.0283657 -0.057238
-0.0310886 0.00895094 -0.0499342 -0.0143614 0.019391 -0.000423475 0.0123839 -0.0280481
-0.0394562 0.0199039 -0.00677798 -0.0543475 -0.0237299 -0.0166575 -0.00838282 0.024541
0.0402192 0.0217684 -0.000799754 0.026014 -0.0234351 0.0352303 -0.0118366 -0.0079256
0.0197337 -0.0278378 -0.0013392 -0.0308461 -0.0286523 0.00493014 -0.0520992 -0.0429751
-0.00816172 0.00752752 -0.0424203 -0.0370002 0.0381888 0.0371993 0.0243449 0.0274847
0.0152927 0.0351977 -0.0146072 -0.0461808 0.0155468 -0.00110047 0.00944666 0.0340953
-0.0324751 0.0120669 -0.0342583 -0.053002 -0.026587 0.00717988 -0.013011 0.0217821
-0.0483322 0.00786319 -0.0500492 -0.0151886 0.0377541 0.00912914 0.030411 -0.0076517
-0.0205706 -0.044933 0.0102705 0.00774823 -0.052083 -0.0412713 0.0298018 -0.0542589
-0.0525596 -0.0507511 -1.0971756 0.18741624 0.24987498 0.043982405 -0.30238867 -0.6369573
00000000: e0f9 75be dff6 e23e b4f8 75be 5351 6cbe
00000010: 3f66 8a3e 265b 5bbc 3d04 b53b ba4a 85be
00000020: 2050 ecbe 01c6 bd3e 850c 263f bc23 f5bd
00000030: aa89 adbe c940 81be 5656 b83d 9450 90bc
00000040: 1e2c 193f 34df 863e de6b 29bd f1bc 1b3f
00000050: 0914 0dbf d4c9 1dbf 4a45 e1bc 8983 f1be
00000060: 6d77 e6bc e7cd 1dbf d44a 34bf 2749 853f
00000070: 1456 303f 8ba1 b3bd 93fa 03be c170 3d3e
00000080: 7bbe 083f fb54 cabe d6bd 353e f991 51bf
00000090: 4319 3cbf da54 0e3e 48b1 783c 7df8 3f3d
000000a0: 8212 703e d7f0 2cbe 7139 353e 7253 d73e
000000b0: 289e d0bd d9ec c03e 054c 963e e03b 7f3c
000000c0: c68f 783d 9962 c5bf 83d4 d23c 86bd dabc
000000d0: 8c4d 8a3b f73b 143d 564f 1c3d 7ebc 41bd
000000e0: 8700 823a b4bf 1d3d c1f7 483c e00e 96bb
000000f0: 1523 e63c f7e9 b83c 12f3 b03b c35d 22bc
00000100: fade 1aba 071d 3e3c a5fe d5bc fcf8 30bd
00000110: 030a f53c e9b0 67bc 7f82 303c f003 26bd
00000120: 0692 41bc c083 55bd a112 37bd 35f6 5bbd
00000130: ea01 383d 02c9 85bc 6b87 da3c e1d4 623c
00000140: e568 693c d60f 5bbd 924f 97bb 2a7a d6bc
00000150: 9617 6abd 2701 60bd a955 4abd ea7f 90bb
00000160: e052 29bd feaa 043a c6a7 803c b8fb c1bc
00000170: 20b2 28bd 71e4 e43a 0abb 36ba ffca 6abd
00000180: 39d2 19bd 6f42 08bc c04d 103d 07fb c0bc
00000190: 7a67 353d f393 70bf befc 85bf 0ffe e1bf
000001a0: 6c94 edbf 6959 c0be 7f1f 5fc0 f0af 2f3f
000001b0: a4d5 293f 543e 55bf 47dd 78bf 81f9 5abe
000001c0: 385e 9bbf a427 ae3e 13ac a33e 39a9 72c0
000001d0: bf94 433e ad0e 35bf 1e1d 24bf 8dba 973c
000001e0: 2a80 183d 968c 96be c815 ea3f 377a 0fc0
000001f0: 64dd a33d 3cea eebf 9d0e a43c 08de 1abc
00000200: 8a40 50bc 2d50 e53f 710f b0bc f82a 45bf
00000210: e7a3 603f 8425 a63b cc2f 3d3f 5b61 a5bf
00000220: f171 53be b9b7 5dbf c7e8 8a3e e2ef 9b3d
00000230: 360a 003f e738 073e d603 8c3f 0471 5e3d
00000240: a480 d3be 68e4 5bbf a2d4 9b3e df30 84bf
00000250: e4dd 2b3f f7ea ad3d ecc3 17bc 3340 58bc
00000260: 5d88 95bc 59bc 5cbb cbe6 bfbb 36ac 093d
00000270: 21e8 09bc b7eb 2abd c266 65bd ac38 15bd
00000280: fcd3 573c a74f fcbc 6141 503c e312 0c3d
00000290: 4485 6abd f35c 1b3c 8f62 ce3b a9d6 673c
000002a0: e30d ba3c 92ec 2cbd 74b8 733b 9219 f9bc
000002b0: b88a 4a3d 1838 0abd 2f5f e8bc 6572 6abd
000002c0: 85ad febc f7a6 123c ce87 4cbd 144c 6bbc
000002d0: e0d9 9e3c da05 deb9 d7e5 4a3c 21c5 e5bc
000002e0: d39c 21bd 810d a33c d119 debb 7c9b 5ebd
000002f0: 3565 c2bc 4f75 88bc 1858 09bc 350a c93c
00000300: e3bc 243d a553 b23c 95a6 51ba 501b d53c
00000310: f8fa bfbc a64d 103d 4cee 41bc 60da 01bc
00000320: 92a8 a13c 190c e4bc 1888 afba f6b0 fcbc
00000330: 3ab8 eabc 038d a13b f965 55bd a906 30bd
00000340: bcb8 05bc 6aa9 f63b e9c0 2dbd 868d 17bd
00000350: dc6b 1c3d 4b5e 183d f56e c73c 9827 e13c
00000360: 3c8e 7a3c 772b 103d 0a53 6fbc 1428 3dbd
00000370: 01b8 7e3c a53d 90ba 2ac6 1a3c 83a7 0b3d
00000380: 9c04 05bd 3fb4 453c 6e52 0cbd a018 59bd
00000390: fbcc d9bc 3345 eb3b 172c 55bc 6070 b23c
000003a0: fcf7 45bd 9cd4 003c 6400 4dbd 9bd9 78bc
000003b0: 0ba4 1a3d 6392 153c 7d20 f93c 1dbb fabb
000003c0: ad83 a8bc aa0b 38bd 9945 283c dde4 fd3b
000003d0: fc54 55bd 180c 29bd e822 f43c 953e 5ebd
000003e0: bc48 57bd 63e0 4fbd 4070 8cbf 0bea 3f3e
000003f0: 3adf 7f3e e526 343d b0d2 9abe a20f 23bf

target_net.all_linears.1.bias f4 [50]
0.35117114 -0.00630299 -1.183405 -0.0107769 -0.00983795 0.24014495 -0.0556057 -1.0048615
0.027259886 -2.333072 -0.49068686 -1.2637361 0.86153483 -0.00695779 -0.034945 0.5800885
-0.94887507 0.8742349 0.1868532 -0.0227493 -0.00657437 -0.0197879 0.88400954 -0.3237104
0.08015454 -0.028804973 -0.021324 -0.2522522 -0.0298085 -0.00627086 -0.14347494 -0.0189651
0.30886388 -0.48061097 -0.011436 -0.29453894 0.17967463 -0.00842177 -1.5165972 -0.0118258
1.6081245 -1.1652641 0.32955655 -0.23695077 -0.1619127 2.3223004 0.9295771 -0.19106622
0.7403347 1.3596156
00000000: b4cc b33e 5089 cebb d179 97bf 9891 30bc
00000010: 5a2f 21bc 8fe8 753e cdc2 63bd 4d9f 80bf
00000020: 2050 df3c 0d51 15c0 4f3b fbbe 1bc2 a1bf
00000030: 8c8d 5c3f 2cfe e3bb 7d22 0fbd ae80 143f
00000040: 7ae9 72bf dccd 5f3f 7256 3f3e bd5c babc
00000050: d06d d7bb 3c1a a2bc 734e 623f 5fbd a5be
00000060: 1028 a43d 68f8 ebbc abaf aebc 3327 81be
00000070: f530 f4bc c97b cdbb 18eb 12be b35c 9bbc
00000080: 6823 9e3e a412 f6be 0f5e 3bbc cfcd 96be
00000090: a0fc 373e 77fb 09bc db1f c2bf 00c1 41bc
000000a0: 06d7 cd3f 6027 95bf a3bb a83e 39a3 72be
000000b0: 71cc 25be 92a0 1440 c4f8 6d3f dda6 43be
000000c0: 9386 3d3f e207 ae3f

target_net.all_linears.2.weight f4 [50, 50]
0.13170636 -0.0109279 0.5584313 -0.00446154 -0.0222375 0.067844 -0.0214547 -0.8021315
0.99242485 0.289735 0.14729866 0.6768051 -2.7766235 0.0109069 -0.0394205 -0.682721
-0.19735 -2.44404 0.729885 -0.0345964 -0.0253708 0.0217206 -0.24720368 0.3433694
-0.1378849 0.52836317 0.0404958 0.48096016 -0.0542502 -0.00597753 -1.6490729 -0.0279783
-0.652812 -0.9011654 -0.0130146 0.9308764 -0.04538816 0.0200341 0.60940063 -0.0318941
0.213349 -0.104711 -0.00230321 -1.6156851 -0.5802871 -0.65201634 -0.0278054 -0.044396497
1.4330666 0.026933886 1.8065288 -0.0390708 -1.4671978 -0.0336479 -0.00270437 0.54787534
-0.0161426 1.0204993 -2.7487302 0.6767527 -1.815699 1.2881428 -0.38764974 0.0050777
0.0416616 -0.72208124 1.847871 -1.0870936 1.0127827 -0.0375453 0.011547 0.0310181
0.48840612 0.28562558 0.44727662 2.8696814 -0.0334488 -0.39289206 -0.00458725 -0.0420579
-0.14514439 0.0538086 1.6044015 -0.23361444 0.0123224 -1.0024296 0.10755413 -0.0123658
0.18270259 -0.034515 1.1743438 0.6361239 0.9355882 -1.5952176 0.56642216 0.39477688
1.853115 0.22399484 0.7238828 -0.009888649 -0.3381294 0.0230477 0.79239714 0.0055006
0.0341191 0.8137022 -0.00483805 -0.0067645595 -0.32962826 0.5725743 -1.3052629 1.1955959
-0.15737551 0.0354678 -0.0517102 1.0292033 0.28106728 0.9010872 1.4575937 0.0147892
-0.0208204 0.00242822 0.5951461 0.4076477 -0.41852853 1.1528838 -0.0184518 0.45134482
0.0126723 0.000508547 0.9858492 -0.0259376 1.0088423 -0.51676404 -0.0065069 1.2657855
-0.3825311 0.0248067 1.0601023 -0.0339732 0.2672384 2.8471363 -0.20833644 0.8556241
0.3556137 0.18078308 1.3535035 0.8842256 0.792115 0.029365245 0.113295734 -0.0209733
0.106979646 0.00858151 0.0421138 0.30216503 -0.021082 0.50721127 -0.37465644 0.0766367
-0.06166606 0.48543385 -0.48049298 0.0540536 -0.00674553 0.36720744 -0.0571196 1.0401845
0.1716792 0.0323841 0.0212844 0.0317071 -0.2581011 -0.43608996 -0.32312512 -0.09213402
0.0255209 0.43769288 0.0378384 -0.000850494 0.39933535 -0.0264971 0.14421743 0.870269
0.0124021 1.849563 0.47180736 0.0147367 -0.032962997 -0.0107566 -0.51442087 0.41732198
2.227657 0.09614555 -0.24877131 0.23169737 0.35485628 -0.04075304 -0.48516268 -0.21518824
0.45452347 -0.0171423 0.9433265 0.0192159 -0.0215817 -2.177868 -0.0441475 -1.4046668
-1.9612814 0.5994649 -0.5992909 0.3305355 -1.4605594 -0.0424613 -0.0269167 -1.6760442
-1.7080681 -2.5644403 -1.1164029 -0.0199395 -0.0361362 -0.0495466 -3.8487024 -2.2985008
-0.03901931 -2.6862338 -0.0262807 -0.018320987 -0.0230413 0.0311385 -1.8330786 -0.015814
0.18090318 -0.889295 -0.0187969 -6.230356 0.23432511 -0.0304139 0.8195067 0.0444296
1.7672791 1.978362 0.03382823 -0.7702243 -0.49104857 -0.92001754 1.64736 -7.630964
-1.0822697 1.2656308 1.4773277 0.0184085 -0.16775228 0.0249512 -0.0316336 0.2280914
00000000: 08de 063e ef0a 33bc 5bf5 0e3f 1c32 92bb
00000010: 6b2b b6bc ccf1 8a3d c4c1 afbc 7d58 4dbf
00000020: 8e0f 7e3f 2558 943e 76d5 163e 1943 2d3f
00000030: 33b4 31c0 dbb2 323c 6477 21bd cec6 2ebf
00000040: 1e16 4abe 276b 1cc0 bed9 3a3f f4b4 0dbd
00000050: 6dd6 cfbc 66ef b13c f622 7dbe 1dce af3e
00000060: b331 0dbe cf42 073f edde 253d 6940 f63e
00000070: 7535 5ebd 28df c3bb d214 d3bf bf32 e5bc
00000080: b01e 27bf c7b2 66bf 303b 55bc ea4d 6e3f
00000090: efe8 39bd 8e1e a43c ae01 1c3f 63a3 02bd
000000a0: 2978 5a3e b972 d6bd 74f1 16bb c5ce cebf
000000b0: b28d 14bf 8bea 26bf 26c8 e3bc 1ad9 35bd
000000c0: ba6e b73f 74a4 dc3c 563c e73f b408 20bd
000000d0: 23cd bbbf 61d2 09bd cd3b 31bb 8f41 0c3f
000000e0: 7c3d 84bc b99f 823f 32eb 2fc0 aa3f 2d3f
000000f0: d368 e8bf dde1 a43f 077a c6be d662 a63b
00000100: 5ba5 2a3d 51da 38bf 0987 ec3f e225 8bbf
00000110: dda2 813f 1ac9 19bd a12f 3d3c ac19 fe3c
00000120: 5e10 fa3e 843d 923e 7101 e53e dca8 3740
00000130: 9c01 09bd 2629 c9be a450 96bb e844 2cbd
00000140: bba0 14be 6866 5c3d 075d cd3f a038 6fbe
00000150: e4e3 493c 9d4f 80bf 5745 dc3d ed99 4abc
00000160: 6316 3b3e 9a5f 0dbd e650 963f 04d9 223f
00000170: b582 6f3f 1730 ccbf 0b01 113f 3220 ca3e
00000180: df32 ed3f e75e 653e 6250 393f 0004 22bc
00000190: 4c1f adbe 88ce bc3c 8ada 4a3f 613e b43b
000001a0: 78c0 0b3d ca4e 503f 8188 9ebb 3da9 ddbb
000001b0: 09c5 a8be 3b94 123f db12 a7bf 4909 993f
000001c0: 0c27 21be af46 113d 13ce 53bd efbc 833f
000001d0: 0de8 8f3e a7ad 663f 6e92 ba3f 674e 723c
000001e0: 8b8f aabc c522 1f3b 7f5b 183f 33b7 d03e
000001f0: 5f49 d6be b291 933f 3b28 97bc ab16 e73e
00000200: 7b9f 4f3c 0350 053a 9d60 7c3f 177b d4bc
00000210: bf21 813f a64a 04bf d537 d5bb 4205 a23f
00000220: 1edb c3be 6c37 cb3c 6fb1 873f 7b27 0bbd
00000230: 79d3 883e 7b37 3640 2656 55be 2e0a 5b3f
00000240: 0013 b63e 331f 393e 9a3f ad3f 9c5c 623f
00000250: 0cc8 4a3f 628f f03c 9807 e83d 33d0 abbc
00000260: 2518 db3d 7699 0c3c 857f 2c3d 60b5 9a3e
00000270: 29b4 acbc 99d8 013f f8d2 bfbe b4f3 9c3d
00000280: 8d95 7cbd c98a f83e 2d03 f6be 4f67 5d3d
00000290: 9b09 ddbb 9d02 bc3e 3ef6 69bd c424 853f
000002a0: accc 2f3e 31a5 043d 9f5c ae3c 4edf 013d
000002b0: d425 84be 2f47 dfbe a870 a5be c3b0 bcbd
000002c0: 3511 d13c 4819 e03e 70fc 1a3d b0f3 5eba
000002d0: af75 cc3e 7210 d9bc bcad 133e f3c9 5e3f
000002e0: 2d32 4b3c 7bbe ec3f bc90 f13e 3372 713c
000002f0: 3504 07bd 733c 30bc 16b1 03bf 3aab d53e
00000300: ef91 0e40 f5e7 c43d e8bd 7ebe 1342 6d3e
00000310: b9af b53e a9ec 26bd 3e67 f8be 4e5a 5cbe
00000320: 4db7 e83e 026e 8cbc d87d 713f aa6a 9d3c
00000330: 1bcc b0bc 3062 0bc0 02d4 34bd 1fcc b3bf
00000340: 450b fbbf 8876 193f 216b 19bf f33b a93e
00000350: 9cf3 babf e6eb 2dbd 6980 dcbc 9e88 d6bf
00000360: faa1 dabf ca1f 24c0 4ae6 8ebf 2a58 a3bc
00000370: 8d03 14bd 60f1 4abd 2451 76c0 a31a 13c0
00000380: b6d2 1fbd 41eb 2bc0 9f4a d7bc e515 96bc
00000390: 1cc1 bcbc 2b16 ff3c 52a2 eabf 5d8c 81bc
000003a0: af3e 393e d6a8 63bf f5fb 99bc 145f c7c0
000003b0: ecf2 6f3e 9226 f9bc 31cb 513f d0fb 353d
000003c0: 3436 e23f f73a fd3f 788f 0a3d 6b2d 45bf
000003d0: b86a fbbe 4586 6bbf b1dc d23f db30 f4c0
000003e0: d087 8abf 3100 a23f 1319 bd3f 6ccd 963c
000003f0: 41c7 2bbe 7566 cc3c 3c92 01bd cb90 693e

target_net.all_linears.2.bias f4 [50]
-1.9361486 0.85078704 -1.0055724 0.089574955 -1.522578 -3.1969995 -2.9893246 0.06454756
0.22509512 -0.7508427 1.4831823 0.397575 -0.5549969 0.14423715 0.22530848 -1.3165805
-0.2271571 -1.5627934 -0.46984488 -0.456564 -0.0488682 -1.9729714 1.0976717 0.16367252
-2.1262507 -0.92777604 -0.15145345 -0.021238 -1.1265255 -1.3831854 -1.4250921 -1.0613923
-0.029511787 1.2320693 -0.103139475 -0.31121913 -1.5842274 -0.95893794 -0.30766138 -1.0886887
-0.17350532 -0.9752412 -0.7599193 -0.00394404 0.72169626 -0.77353823 -0.6829714 -1.1724656
-0.18474533 -2.9979055
00000000: b8d3 f7bf 2ecd 593f 99b6 80bf 1373 b73d
00000010: d6e3 c2bf a49b 4cc0 1851 3fc0 8331 843d
00000020: 567f 663e 3a37 40bf ebd8 bd3f f38e cb3e
00000030: 4714 0ebf e7b2 133e 44b7 663e b685 a8bf
00000040: df9b 68be 9d09 c8bf 828f f0be c2c2 e9be
00000050: 062a 48bd 548a fcbf 8280 8c3f c599 273e
00000060: 7e14 08c0 bb82 6dbf 9d16 1bbe 50fb adbc
00000070: fd31 90bf 380c b1bf 6b69 b6bf b4db 87bf
00000080: b4c2 f1bc 72b4 9d3f ca3a d3bd 1d58 9fbe
00000090: f7c7 cabf f57c 75bf cb85 9dbe 275a 8bbf
000000a0: 61ab 31be 68a9 79bf 128a 42bf 013d 81bb
000000b0: 16c1 383f 9a06 46bf 37d7 2ebf 5a13 96bf
000000c0: e12d 3dbe afdd 3fc0

target_net.all_linears.3.weight f4 [50, 50]
-0.6429137 -0.050794102 -0.6912238 1.6164144 0.6913362 1.0393248 1.6715578 -0.22133793
-0.0583392 1.1491929 -1.2979907 0.35770816 2.1608837 0.05476503 -0.07978965 2.4381866
1.0436041 -0.10920411 0.4925764 -0.2641401 -0.0118565 0.90669227 -0.17309178 1.5945628
1.7835139 0.6211449 4.3392854 -0.012668 3.7701814 1.8443042 1.1238835 -0.6139414
-0.021892203 0.09182869 -0.35643268 0.40568972 0.8839562 -0.12341773 0.27678776 1.0378541
2.5125415 0.114733756 -0.55536413 0.0396355 -0.07646616 0.53486913 -0.19036168 1.6316862
0.9662653 4.3986607 -4.1053715 0.240905 2.065617 -1.7446698 0.2820014 -1.9615551
-0.28363067 -1.4098356 -0.061497815 -3.2399943 -0.42980647 -2.8245018 -0.56482923 1.1129634
0.6393595 -0.26697993 -1.1325032 0.50796217 0.41131693 -0.2973446 0.079685 0.65371567
-0.440717 1.3527209 0.06457272 -0.9925697 -0.10188896 0.00412655 -1.6868105 -0.10493248
2.7440462 -0.16474342 0.003135304 -0.72580844 -0.18371458 0.63420266 -0.43895876 0.21908297
-1.7835093 -1.4103702 -1.7587684 0.009965508 -0.11405239 -0.0278726 0.62108386 0.57690394
0.4096806 -1.887193 -1.2878631 0.33816808 1.3701105 -1.3076321 -1.5948958 0.4158731
0.19714071 0.4512813 0.8653744 -1.2626089 -0.0324466 0.04948754 0.4961917 0.33916467
2.1192465 -0.050860763 0.18617128 0.702211 0.22868347 0.76921034 1.3071184 0.17712885
0.0175983 0.2748321 -0.555609 2.5582569 -0.2885777 0.6314095 0.10474203 0.0134665
-0.09830063 0.3428413 1.5946646 -0.02509317 0.025620881 0.24712773 -0.73483527 -0.40961
0.0021162713 0.1490027 1.772312 -0.76889336 0.7941063 0.0888312 -0.42607984 0.0192785
0.026443614 3.288186 0.024360022 0.5559379 0.06088629 0.35939002 5.044833 0.08462429
-0.7182856 0.011635526 -0.22923362 3.4008324 1.9896609 0.24028568 0.15909283 -1.9506538
0.09915394 -0.41768157 3.7820985 0.74258906 0.24380557 1.413585 0.84310424 1.340328
2.059241 0.5652601 -0.0483092 0.8138568 0.29501635 -1.0205755 -0.29018107 1.0799932
1.4652517 -0.0165807 1.3484106 0.11119478 3.2928915 -0.57724065 0.013819294 -0.3928638
-0.4465735 0.6693346 2.357826 -0.5447701 -0.40167356 0.7102446 0.38927966 0.47933748
-1.2585108 0.0243333 1.1763285 3.0267787 0.6587949 1.4762065 -0.22698621 0.812865
4.3714237 -0.63173383 -1.0548011 1.7907736 -2.5818064 2.6878495 -0.5059622 2.3449056
-0.06071201 1.1758941 2.0481288 0.16273874 2.3375986 4.3047085 0.10601799 1.1817001
0.12103312 0.90124434 2.3530369 -0.020300455 0.00371566 0.96112335 -0.9573374 -1.9682115
1.8638157 1.5064666 1.0450909 0.00592227 1.2548016 1.2136755 1.6330681 -0.4216956
-0.019537859 0.3989191 0.08354953 2.300965 0.70511955 -0.5493248 1.4144962 2.2737799
1.7342669 1.059885 -2.2712982 -0.0398267 -0.92014706 -0.61359894 0.59231144 1.1642967
-0.41716993 2.0768752 -2.416846 -0.09845282 0.11436292 -0.19407474 0.46124977 -0.49029627
00000000: fe95 24bf 7a0d 50bd 0bf4 30bf abe6 ce3f
00000010: 69fb 303f 9808 853f 9bf5 d53f 69a6 62be
00000020: 16f5 6ebd c118 933f 8f24 a6bf 8625 b73e
00000030: eb4b 0a40 4c51 603d c268 a3bd 400b 1c40
00000040: d294 853f 68a6 dfbd f932 fc3e 5f3d 87be
00000050: c441 42bc fc1c 683f f93e 31be a21a cc3f
00000060: 2f4a e43f 5a03 1f3f 6ddb 8a40 718d 4fbc
00000070: a74a 7140 2912 ec3f 6adb 8f3f 432b 1dbf
00000080: 4757 b3bc ae10 bc3d 587e b6be 90b6 cf3e
00000090: f44a 623f 6fc2 fcbd 20b7 8d3e 67d8 843f
000000a0: 7bcd 2040 88f9 ea3d 582c 0ebf d658 223d
000000b0: 4a9a 9cbd 2fed 083f 2cee 42be 18db d03f
000000c0: 2a5d 773f d4c1 8c40 345f 83c0 cdaf 763e
000000d0: 1233 0440 5751 dfbf 7d62 903e 3d14 fbbf
000000e0: 0a38 91be 7e75 b4bf 22e5 7bbd 115c 4fc0
000000f0: 980f dcbe a3c4 34c0 a698 10bf 9675 8e3f
00000100: 10ad 233f 98b1 88be ddf5 90bf cf09 023f
00000110: 2298 d23e 8d3d 98be e431 a33d e959 273f
00000120: a9a5 e1be f525 ad3f b43e 843d 0c19 7ebf
00000130: 29ab d0bd 0338 873b 68e9 d7bf d7e6 d6bd
00000140: 749e 2f40 80b2 28be ac79 4d3b 95ce 39bf
00000150: ad1f 3cbe 1b5b 223f 34bf e0be 4957 603e
00000160: 084a e4bf 0387 b4bf 531f e1bf 5f46 233c
00000170: 4d94 e9bd 1455 e4bc 5aff 1e3f faaf 133f
00000180: a8c1 d13e 8a8f f1bf b3d8 a4bf 5e24 ad3e
00000190: c85f af3f 7d60 a7bf 8c25 ccbf 52ed d43e
000001a0: 41df 493e 580e e73e 2d89 5d3f 2b9d a1bf
000001b0: bae6 04bd 72b3 4a3d d70c fe3e fea6 ad3e
000001c0: bca1 0740 6053 50bd afa3 3e3e 1ac4 333f
000001d0: 002c 6a3e f8ea 443f a84f a73f 4461 353e
000001e0: 4f2a 903c cbb6 8c3e 643c 0ebf 7bba 2340
000001f0: 75c0 93be 0ea4 213f fd82 d63d 98a2 5c3c
00000200: d751 c9bd e588 af3e f81d cc3f 3190 cdbc
00000210: e2e2 d13c 0d0f 7d3e 2a1e 3cbf 67b8 d1be
00000220: 24b1 0a3b 2a94 183e 1fdb e23f 32d6 44bf
00000230: 8d4a 4b3f 22ed b53d 2327 dabe f2ed 9d3c
00000240: 47a0 d83c a471 5240 ab8e c73c f251 0e3f
00000250: e763 793d f801 b83e 466f a140 804f ad3d
00000260: 91e1 37bf efa2 3e3c 38bc 6abe 3da7 5940
00000270: 35ad fe3f 730d 763e 3be9 223e 06af f9bf
00000280: 3911 cb3d 5cda d5be e70d 7240 511a 3e3f
00000290: 2ba8 793e 5af0 b43f aed5 573f de8f ab3f
000002a0: 9bca 0340 e3b4 103f dedf 45bd eb58 503f
000002b0: 620c 973e 38a2 82bf 9d92 94be 383d 8a3f
000002c0: 5e8d bb3f 40d4 87bc b898 ac3f 17ba e33d
000002d0: bcbe 5240 0bc6 13bf 526a 623c 7225 c9be
000002e0: 48a5 e4be 8359 2b3f 9fe6 1640 0e76 0bbf
000002f0: 28a8 cdbe 97d2 353f aa4f c73e b96b f53e
00000300: e216 a1bf a156 c73c ef91 963f beb6 4140
00000310: c8a6 283f 56f4 bc3f 136f 68be ec17 503f
00000320: b4e2 8b40 4fb9 21bf b903 87bf 1238 e53f
00000330: 513c 25c0 ba05 2c40 bd86 01bf ef12 1640
00000340: 28ad 78bd b383 963f 8b14 0340 fca4 263e
00000350: 379b 1540 2cc0 8940 f61f d93d f341 973f
00000360: 36e0 f73d f3b7 663f 2898 1640 244d a6bc
00000370: 6e82 733b 2e0c 763f 1014 75bf 5bee fbbf
00000380: 8391 ee3f e6d3 c03f 8ac5 853f 9a0f c23b
00000390: 579d a03f b859 9b3f 6008 d13f 7ce8 d7be
000003a0: dc0d a0bc 203f cc3e 041c ab3d 0343 1340
000003b0: b782 343f 8da0 0cbf 360e b53f 9c85 1140
000003c0: 75fc dd3f 50aa 873f f35c 11c0 5221 23bd
000003d0: c28e 6bbf d214 1dbf b9a1 173f ad07 953f
000003e0: 4c97 d5be 86eb 0440 9bad 1ac0 a2a1 c9bd
000003f0: 1b37 ea3d 87bb 46be ee28 ec3e 1d08 fbbe

target_net.all_linears.3.bias f4 [50]
-4.7695265 0.3665656 -0.5278951 1.0851104 -1.5375398 1.2083238 0.4860361 1.9451369
-0.36830893 -1.7767681 -1.0527891 2.1251383 -4.3111777 1.0128572 -0.011959656 0.24314164
1.3807268 -2.9454458 0.75594765 -0.39128134 -3.2833598 -0.03777368 -6.0230756 -0.52552223
-0.3631101 0.68319094 0.12912631 1.139619 0.97696733 1.4497936 1.261795 0.7417127
-0.03490944 -1.1295292 2.6647663 1.6893439 -1.133714 1.2677149 -1.7574768 -2.4608228
-2.0597608 -0.6153955 -0.6809389 -0.16553408 -0.42893675 0.5718259 -1.0892742 -0.2845715
-0.95760447 -1.2331396
00000000: f69f 98c0 7cae bb3e 2224 07bf e6e4 8a3f
00000010: 1bce c4bf 5baa 9a3f b9d9 f83e 3ffa f83f
00000020: fd92 bcbe 236d e3bf cbc1 86bf 4402 0840
00000030: 2bf5 89c0 4ea5 813f 6ff2 43bc 1ffa 783e
00000040: a8bb b03f 2f82 3cc0 c985 413f 0756 c8be
00000050: 9122 52c0 93b8 1abd 09bd c0c0 a088 06bf
00000060: 91e9 b9be 9ae5 2e3f b039 043e 09df 913f
00000070: 881a 7a3f d692 b93f 8082 a13f e2e0 3d3f
00000080: 33fd 0ebd 6a94 90bf 888b 2a40 6c3c d83f
00000090: 8a1d 91bf 7b44 a23f 00f5 e0bf 1f7e 1dc0
000000a0: 1fd3 03c0 8f8a 1dbf 0352 2ebf c481 29be
000000b0: 999d dbbe 2f63 123f 566d 8bbf 5bb3 91be
000000c0: 9125 75bf 85d7 9dbf

target_net.all_linears.4.weight f4 [50, 50]
0.04198819 -0.20825492 0.06002315 -0.17149211 -0.2987951 0.4288124 1.333251 -1.4611542
0.052632183 -0.0006591318 0.65108836 0.55714685 0.08834404 -1.203799 0.02820782 0.01689202
-0.022495104 -0.31037092 -1.3855251 0.9660245 0.06972788 0.4286341 0.34992084 -0.3014377
-0.025086163 -0.66027075 0.0065758065 -0.06387357 -0.10596967 -5.6292253 0.41392675 1.1814028
0.045968153 -0.07840331 -0.06632121 -0.1605216 -0.010224886 -0.877774 1.066027 -1.3802474
-0.58637005 -1.256568 -0.45276427 0.67465854 0.3266015 0.066990145 0.28233036 0.6964925
0.95499516 0.2311086 0.22449465 -0.072060294 -0.2863654 1.5503622 0.67549115 0.80806553
-0.008313038 0.3931668 1.0413966 -0.0011320079 1.9795176 -0.12545967 -0.92361826 -0.21007447
-0.02097897 -0.48207313 1.573659 0.7188698 -1.0279715 1.6928116 -0.018465158 1.5387877
0.36187735 -2.0707896 -0.6881715 -0.82262695 0.0037716466 -1.5887288 1.159181 0.2690085
-0.24464853 -0.21188374 0.018184057 -0.7408828 0.14280507 0.21083282 -1.3277576 1.7148619
0.5999817 0.35782143 -0.09419631 0.17926751 0.01558405 -1.6862792 0.46799523 0.5039806
-1.6771213 -0.44459036 0.013429323 -0.15231068 -0.80543727 -0.015018986 0.43617284 -0.5031974
-0.12294299 0.6201659 0.048382044 -1.1283449 -0.13574399 0.49184647 -1.1157591 -0.25882712
-0.30941907 -0.39207166 -0.00549857 0.6055086 0.35451937 0.95733404 0.0956459 -1.3920271
0.15861908 -0.4788061 0.43465477 1.546067 0.6791285 -1.3977627 -2.3486874 -0.19910368
-0.39849466 -3.942092 0.55617017 0.6246018 -0.04181075 0.8208135 -0.75117165 0.100678675
0.5807507 0.38291895 -1.6772223 -2.6356306 -1.5629687 0.7807405 -2.0329676 0.2651252
-0.6408209 -0.81757665 -0.115042746 0.30498785 -2.487594 0.8249077 0.34133622 0.9103457
-3.0529711 -0.058866948 -0.23239036 0.70059586 -1.4889654 0.49798536 0.74423575 0.73084974
-0.27266732 0.2999516 0.067996666 0.19378512 0.01977354 -0.84501725 -0.27612126 1.1621621
-3.4022634 -0.34314916 -0.26991647 0.9076002 -0.082468204 -0.7641546 -0.28274626 -0.20936498
-0.16345817 -0.8790804 0.63777435 0.41426837 -0.5581675 -0.92914873 0.010723687 -0.19507086
0.14529267 -0.37550265 -0.389302 0.13177194 0.5762387 -0.13416687 -0.7384726 -1.2978548
-1.0590873 -2.0786734 -0.09549769 0.915376 3.0642533 0.18464312 1.0981848 -0.77159154
-2.7636173 1.2539799 -0.43081445 0.33307162 -0.019514974 -0.20766962 1.1522663 -1.5258547
0.57597077 0.9557661 0.6689328 0.21150063 0.008265436 1.3763462 -0.01820884 0.68420327
1.0066237 -0.86589813 0.6379052 1.1043092 0.52110463 -1.0425503 -1.1926274 0.87372726
0.47303715 -1.8433264 0.32366264 0.4457612 -0.10317076 -3.3117223 0.5036334 1.7195371
0.002988298 -1.3061075 -0.82832247 0.34208965 0.32443723 1.3708044 -0.37576985 0.3512621
1.0184566 -3.073039 -0.7401445 0.53380877 0.9538085 0.67258334 0.3580849 1.5608312
0.86339724 -0.5288025 0.1510438 -1.0226865 2.4019754 0.7686983 -0.580311 -0.35605776
00000000: cffb 2b3d c740 55be d6da 753d a19b 2fbe
00000010: acfb 98be 4d8d db3e f8a7 aa3f 1a07 bbbf
00000020: d894 573d 96c9 2cba baad 263f 2da1 0e3f
00000030: b8ed b43d 1616 9abf 1614 e73c 2261 8a3c
00000040: a747 b8bc f0e8 9ebe e358 b1bf 624d 773f
00000050: 7ecd 8e3d ee75 db3e d328 b33e 0b56 9abe
00000060: 7f81 cdbc 8107 29bf dd79 d73b 25d0 82bd
00000070: a006 d9bd 9d22 b4c0 35ee d33e 3538 973f
00000080: 1a49 3c3d ea91 a0bd 6ad3 87bd c65f 24be
00000090: 4886 27bc ccb5 60bf 9373 883f f2ab b0bf
000000a0: 591c 16bf 38d7 a0bf b8d0 e7be 6cb6 2c3f
000000b0: 5038 a73e 2132 893d 9b8d 903e 554d 323f
000000c0: 907a 743f bca7 6c3e ede1 653e 5994 93bd
000000d0: 7c9e 92be 4572 c63f fdec 2c3f 62dd 4e3f
000000e0: 6933 08bc 294d c93e 7c4c 853f e25f 94ba
000000f0: d560 fd3f 8078 00be 3f72 6cbf c31d 57be
00000100: 17dc abbc 4ad2 f6be a86d c93f da07 383f
00000110: 9294 83bf 0dae d83f 3e44 97bc fff6 c43f
00000120: fd47 b93e d187 04c0 022c 30bf ae97 52bf
00000130: bb2d 773b 775b cbbf 0b60 943f 7bbb 893e
00000140: 2585 7abe 0df8 58be bbf6 943c 7faa 3dbf
00000150: 7e3b 123e 8fe4 573e f6f3 a9bf 9880 db3f
00000160: 6798 193f 5f34 b73e ffe9 c0bd e791 373e
00000170: 3e54 7f3c ffd7 d7bf 129d ef3e df04 013f
00000180: e9ab d6bf 59a1 e3be aa06 5c3c 55f7 1bbe
00000190: 2331 4ebf 3112 76bc 0c52 df3e 8bd1 00bf
000001a0: 89c9 fbbd 31c3 1e3f 402c 463d 9b6d 90bf
000001b0: 7900 0bbe 4dd3 fb3e 32d1 8ebf fd84 84be
000001c0: 2d6c 9ebe 9ebd c8be 592d b4bb 9d02 1b3f
000001d0: 9083 b53e d813 753f ffe1 c33d f22d b2bf
000001e0: 0a6d 223e 1326 f5be 128b de3e 86e5 c53f
000001f0: 5edb 2d3f e3e9 b2bf e550 16c0 d6e1 4bbe
00000200: 7e07 ccbe 3c4b 7cc0 2b61 0e3f e7e5 1f3f
00000210: c041 2bbd d520 523f c94c 40bf 9f30 ce3d
00000220: 14ac 143f f40d c43e 38af d6bf 2cae 28c0
00000230: 5c0f c8bf 9cde 473f 241c 02c0 7dbe 873e
00000240: d70c 24bf b44c 51bf 889b ebbd 5e27 9c3e
00000250: bd34 1fc0 272d 533f 9fc3 ae3e 6a0c 693f
00000260: e163 43c0 781e 71bd bdf7 6dbe 405a 333f
00000270: 6b96 bebf f0f7 fe3e 3c86 3e3f f818 3b3f
00000280: 0d9b 8bbe 4293 993e d641 8b3d 9b6f 463e
00000290: 1efc a13c 0d53 58bf c45f 8dbe bac1 943f
000002a0: afbe 59c0 3fb1 afbe 7e32 8abe 7d58 683f
000002b0: 17e5 a8bd a39f 43bf 1ec4 90be c663 56be
000002c0: 9461 27be 6a0b 61bf 2e45 233f fc1a d43e
000002d0: 11e4 0ebf b1dc 6dbf 67b2 2f3c a8c0 47be
000002e0: 9ac7 143e e241 c0be 9752 c7be 39ef 063e
000002f0: 6184 133f 0a63 09be 8a0c 3dbf 1b20 a6bf
00000300: 2c90 87bf fc08 05c0 4b94 c3bd 1556 6a3f
00000310: ba1c 4440 1613 3d3e 5291 8c3f 0687 45bf
00000320: 1bdf 30c0 6a82 a03f b693 dcbe 5d88 aa3e
00000330: dedd 9fbc 58a7 54be 767d 933f 354f c3bf
00000340: d272 133f 16ad 743f 2e3f 2b3f 9f93 583e
00000350: c06b 073c 1d2c b03f b52a 95bc f227 2f3f
00000360: 0cd9 803f 80ab 5dbf c14d 233f 015a 8d3f
00000370: 1d67 053f 4a72 85bf 04a8 98bf 97ac 5f3f
00000380: ed31 f23e 1ff2 ebbf 1cb7 a53e d03a e43e
00000390: 314b d3bd 42f3 53c0 1eee 003f cb19 dc3f
000003a0: 52d7 433b 882e a7bf f10c 54bf 6026 af3e
000003b0: a31c a63e 8576 af3f e864 c0be a0d8 b33e
000003c0: c95c 823f acac 44c0 1c7a 3dbf b1a7 083f
000003d0: cb2c 743f 6c2e 2c3f e756 b73e 51c9 c73f
000003e0: 9a07 5d3f 9a5f 07bf 3aab 1a3e 64e7 82bf
000003f0: f7b9 1940 69c9 443f 438f 14bf 344d b6be

target_net.all_linears.4.bias f4 [50]
-1.9240158 1.2257631 2.8675287 -1.1696581 -3.2040238 -2.9004755 -0.32842866 -4.862444
0.0023011705 1.170818 1.8983607 0.33094218 3.4678423 -3.936912 0.668529 2.044435
0.10628827 -0.71357894 1.5132477 -0.7921953 -0.031096533 -0.48001125 -1.8606488 2.4866087
-2.980418 -0.5794158 -1.4713262 -0.93926835 -0.7112783 0.27609503 0.9262878 3.0018559
0.33649352 -0.6494158 -4.0679293 0.5285679 -1.0862817 0.094970234 0.3013739 0.5438958
0.17015377 -2.4908555 -4.003886 0.42818803 -1.1997849 3.8209064 2.0003252 1.096124
-4.2939076 -1.9498335
00000000: 2646 f6bf cee5 9c3f 9785 3740 5bb7 95bf
00000010: ba0e 4dc0 64a1 39c0 cd27 a8be 2499 9bc0
00000020: 3ccf 163b 5ddd 953f 7cfd f23f 4171 a93e
00000030: 21f1 5d40 5ef6 7bc0 b724 2b3f 06d8 0240
00000040: aaad d93d 1cad 36bf 1ab2 c13f 50cd 4abf
00000050: 28be febc 09c4 f5be bd29 eebf 9924 1f40
00000060: 2bbf 3ec0 9854 14bf 6b54 bcbf e473 70bf
00000070: 5616 36bf 545c 8d3e 3221 6d3f 681e 4040
00000080: e148 ac3e 1d40 26bf 7a2c 82c0 3a50 073f
00000090: 470b 8bbf c17f c23d ae4d 9a3e c13c 0b3f
000000a0: ca3c 2e3e 2d6a 1fc0 d61f 80c0 763b db3e
000000b0: 8d92 99bf bb89 7440 5405 0040 cb4d 8c3f
000000c0: b167 89c0 2594 f9bf

target_net.all_linears.5.weight f4 [50, 50]
0.11484533 -0.032515656 -0.037997976 0.2255505 0.04117405 0.17571811 0.160311 0.20671761
-0.10165803 0.28957248 -0.2199324 0.015121088 -0.11586111 -0.019073969 0.029232249 0.023199629
0.023726128 0.11488963 -0.21771175 -0.07763215 0.23031832 0.29650074 0.14321484 0.09819523
0.16040726 0.12601234 -0.058361985 0.063604996 -0.07482251 -0.045847654 -0.13546605 0.085180044
-0.041074082 0.08292742 0.103075184 0.15490147 0.12057391 0.07033324 0.07989505 0.14025202
-0.0419749 0.081148244 0.12482966 -0.05447392 0.26186427 -0.055366974 -0.0014901529 -0.035980023
0.026217647 0.32476154 0.60866034 -0.79798496 -1.0900388 0.014387849 -1.0981078 -0.76644695
0.32789105 -0.4259368 -2.1713398 0.42749888 -0.20577163 0.740055 -1.4025484 -0.4993921
-0.03941633 -0.37241086 -0.9529538 0.029704444 -1.4577557 0.032997493 -1.4961497 -0.6325645
-2.2029798 -0.20695661 -2.6796987 -0.26731187 -0.18952376 -3.1203089 -0.45157832 -0.5183962
-1.9747497 0.03139261 -1.5249479 -4.0353994 -0.021254955 -0.19000791 0.7190643 -0.002430081
-0.45858648 0.7311899 0.2597201 -0.14166212 -0.6024086 0.33174336 0.30301675 -3.1003375
-0.25540447 -0.52378196 -0.5823757 -1.0820693 -0.92347455 -4.035431 -0.43711406 -1.4526083
0.44487932 -1.4824204 0.07348353 -2.3470244 -0.5758963 -1.8778223 -0.53992677 -2.252802
-0.94701624 -1.6076384 0.5471333 -0.7586044 -3.5638433 0.45334432 -1.6896831 -0.17279832
-0.9812857 -2.2310846 -2.7091289 -0.24135286 -6.977858 -1.9478216 -1.0680548 0.107967004
-2.4801192 -0.5166482 -0.43063912 1.0741683 -2.429896 -4.077856 -1.13654 0.44374537
-3.0505562 -8.439399 -2.58172 -1.6625004 -4.6884975 -0.66506314 -2.5446563 0.058585856
-2.0681305 -0.23141919 -2.9899564 -1.8182088 0.6117914 -8.001651 -1.1095572 0.08333186
-1.4934452 -2.7787843 -2.4746122 -0.60763866 -3.6214447 0.9530073 -0.9732802 2.403276
-0.8938988 -0.2687952 -0.991114 0.8128886 1.1152039 -0.39406684 0.25485525 -0.086563535
-1.7233611 -0.3206555 -4.290214 0.6195996 -0.093085 0.849237 -1.8931046 0.19987844
-0.35394022 -0.34707174 -0.69312966 -0.010068495 -1.3915877 -0.35949427 -0.40930298 -0.30322096
-0.052824553 -0.66774523 -0.7137764 -0.3175874 -1.1382649 -0.36475077 1.7341179 1.03965
0.80917984 -0.32140562 -0.24707393 0.038549755 0.3768644 -1.8535999 1.8703347 0.3916486
-0.1533992 0.078282215 0.043278668 0.2504819 0.17963432 0.24743123 -0.45525298 0.09258501
0.47364178 -0.3589104 0.1575633 0.16608867 0.06524574 0.07825971 0.16508402 -0.07678801
-0.33808804 -0.47703657 0.056926068 -0.10214526 0.45100364 -0.30583203 -0.53598505 -0.1803416
-0.08845207 0.21618287 -0.08862327 0.06243967 0.078269966 -0.21500091 0.1594861 -0.34540057
-0.10090985 -0.45724848 -0.030039925 -0.3340023 0.14476043 0.26683182 0.27074033 -0.1682178
0.11664869 0.0903721 0.0833724 -0.1611657 -0.32664675 -0.14795522 -0.21604788 -0.1700715
0.08039188 0.17124134 0.0005540164 0.11047927 0.052332673 -0.10281814 0.16147846 0.13307606
00000000: 0734 eb3d 232f 05bd c4a3 1bbd b6f6 663e
00000010: 1fa6 283d 73ef 333e 9128 243e c8ad 533e
00000020: 1632 d0bd d842 943e f635 61be 71be 773c
00000030: 9748 edbd 0341 9cbc 7878 ef3c 260d be3c
00000040: 4c5d c23c 414b eb3d d4ef 5ebe 9bfd 9ebd
00000050: 91d8 6b3e f2ce 973e e9a6 123e 951a c93d
00000060: cd41 243e 6109 013e fa0c 6fbd 5643 823d
00000070: 8b3c 99bd c0ca 3bbd 9db7 0abe e072 ae3d
00000080: 4c3d 28bd dad5 a93d 1519 d33d 7e9e 1e3e
00000090: 74ef f63d e00a 903d 04a0 a33d 3a9e 0f3e
000000a0: dfed 2bbd 0d31 a63d b1a6 ff3d 0c20 5fbd
000000b0: 1313 863e 7bc8 62bd 3c51 c3ba ca5f 13bd
000000c0: 64c6 d63c 2547 a63e 2ad1 1b3f be48 4cbf
000000d0: 6486 8bbf 03bb 6b3c cc8e 8cbf de35 44bf
000000e0: 56e1 a73e 6314 dabe 3bf7 0ac0 22e1 da3e
000000f0: ccb5 52be 3f74 3d3f b586 b3bf 52b0 ffbe
00000100: 0573 21bd a3ac bebe c8f4 73bf bc56 f33c
00000110: bd97 babf 6128 073d d581 bfbf bfef 21bf
00000120: 9ffd 0cc0 6fec 53be 2f80 2bc0 1add 88be
00000130: 8412 42be 24b3 47c0 4635 e7be 9db5 04bf
00000140: 99c4 fcbf 8a95 003d 7e31 c3bf fe21 81c0
00000150: df1e aebc 6f91 42be 9914 383f fe41 1fbb
00000160: d9cb eabe 432f 3b3f 08fa 843e e00f 11be
00000170: 7337 1abf 44da a93e 0325 9b3e ee6b 46c0
00000180: 60c4 82be 9316 06bf 9316 15bf 3f81 8abf
00000190: d468 6cbf 4022 81c0 6acd dfbe 12ef b9bf
000001a0: 39c7 e33e f4bf bdbf 887e 963d a635 16c0
000001b0: f16d 13bf 7b5c f0bf a438 0abf e82d 10c0
000001c0: a86f 72bf 18c7 cdbf ee10 0c3f e633 42bf
000001d0: 0216 64c0 bf1c e83e 8947 d8bf 0bf2 30be
000001e0: 8a35 7bbf 17ca 0ec0 5e62 2dc0 3425 77be
000001f0: 9d4a dfc0 3852 f9bf 05b6 88bf ce1d dd3d
00000200: 46ba 1ec0 0e43 04bf bb7c dcbe 597e 893f
00000210: 6b83 1bc0 cc7d 82c0 257a 91bf 9832 e33e
00000220: 503c 43c0 c707 07c1 e73a 25c0 d0cc d4bf
00000230: 2c08 96c0 9441 2abf a6db 22c0 b9f7 6f3d
00000240: 405c 04c0 27f9 6cbe 725b 3fc0 11bb e8bf
00000250: 5c9e 1c3f c306 00c1 f805 8ebf e5a9 aa3d
00000260: 3629 bfbf 9ad7 31c0 0c60 1ec0 358e 1bbf
00000270: c0c5 67c0 49f8 733f e428 79bf 46cf 1940
00000280: 8dd6 64bf 869f 89be a6b9 7dbf 7819 503f
00000290: 00bf 8e3f 21c3 c9be 637c 823e 3948 b1bd
000002a0: 1997 dcbf f52c a4be 6f49 89c0 149e 1e3f
000002b0: 59a3 bebd 9967 593f 4051 f2bf efac 4c3e
000002c0: a737 b5be 63b3 b1be f270 31bf 54f6 24bc
000002d0: 8c1f b2bf a20f b8be 2990 d1be c73f 9bbe
000002e0: 8f5e 58bd 5af1 2abf 0dba 36bf d19a a2be
000002f0: aab2 91bf 9dc0 babe 93f7 dd3f 4013 853f
00000300: 6926 4f3f 478f a4be f300 7dbe 59e6 1d3d
00000310: 5ff4 c03e c342 edbf 2167 ef3f 2a86 c83e
00000320: ae14 1dbe 6d52 a03d f944 313d 2a3f 803e
00000330: 0ff2 373e 9d5e 7d3e eb16 e9be 369d bd3d
00000340: 2d81 f23e 1bc3 b7be 4658 213e 2613 2a3e
00000350: 8f9f 853d a046 a03d c90b 293e 0843 9dbd
00000360: e019 adbe 233e f4be 4f2b 693d 8931 d1bd
00000370: f3e9 e63e 0496 9cbe 5136 09bf 78ab 38be
00000380: 5c26 b5bd 0b5f 5d3e 1e80 b5bd bdc0 7f3d
00000390: 014c a03d 3329 5cbe 5350 233e 58d8 b0be
000003a0: d3a9 cebd 791c eabe 4a16 f6bc 5902 abbe
000003b0: 143c 143e 2e9e 883e 7a9e 8a3e 4941 2cbe
000003c0: 82e5 ee3d 0215 b93d 26bf aa3d 9f08 25be
000003d0: 3e3e a7be 9381 17be a83b 5dbe 3927 2ebe
000003e0: 7fa4 a43d e459 2f3e 693b 113a f542 e23d
000003f0: c95a 563d 5192 d2bd 9c5a 253e 1745 083e

target_net.all_linears.5.bias f4 [50]
-0.45355934 0.00079787994 5.8976426 0.274682 1.477857 0.2302267 3.381266 -5.835197
-7.1580462 4.2726245 -5.9016585 -6.1383667 0.34069386 0.22845341 -5.7463875 3.0804894
0.9562258 -5.5801244 -1.2835046 -9.138988 -1.6151204 3.3846116 -4.0096855 1.5573527
-10.4382305 -8.993491 -9.917504 -4.8944383 -1.475951 -3.5755749 -4.9087443 -6.0813107
1.1767285 0.16622807 -3.3268933 -5.304872 0.23089063 -7.229963 3.5245948 -12.788075
-3.3655753 0.16176021 3.321081 -6.014961 1.0241013 4.6487207 -7.6340623 1.9637208
-0.99591213 -9.093416
00000000: ee38 e8be d128 513a 7db9 bc40 1ea3 8c3e
00000010: 6b2a bd3f 8cc0 6b3e aa66 5840 efb9 bac0
00000020: b70e e5c0 57b9 8840 63da bcc0 806d c4c0
00000030: 6d6f ae3e b1ef 693e 68e2 b7c0 bd26 4540
00000040: 37cb 743f 6190 b2c0 e149 a4bf 4b39 12c1
00000050: 44bc cebf 7a9d 5840 584f 80c0 5557 c73f
00000060: fe02 27c1 57e5 0fc1 19ae 1ec1 3d9f 9cc0
00000070: f6eb bcbf 38d6 64c0 6f14 9dc0 199a c2c0
00000080: 0a9f 963f b137 2a3e d2eb 54c0 83c1 a9c0
00000090: 986e 6c3e db5b e7c0 f692 6140 f59b 4cc1
000000a0: 9665 57c0 78a4 253e 978c 5440 8f7a c0c0
000000b0: c015 833f 52c2 9440 3d4a f4c0 345b fb3f
000000c0: 19f4 7ebf a27e 11c1

target_net.all_linears.6.weight f4 [5, 50]
-0.089578055 -0.024009934 -0.0072359 -0.018464997 -0.00034799168 -0.0051662847 -0.0067974883 -0.008666171
-0.008156658 -0.0071826517 -0.00943063 -0.008293837 -0.13653518 -0.023228556 -0.0085440595 -0.010271401
-0.0008464471 -0.009123125 -0.0226668 -0.0077883727 -0.007171399 -0.0066248584 -0.009151095 -0.004836233
-0.006535904 -0.008166925 -0.008341099 -0.00924093 -0.00585999 -0.009280972 -0.0074546286 -0.008850982
-0.036705025 -0.016939612 -0.007868255 -0.008878182 -0.009583367 -0.008544512 -0.0143218 -0.0077580973
-0.008370675 0.008058864 -0.006134254 -0.0085361 -0.014343171 -0.00563146 -0.009338061 -0.0127108
-0.008617167 -0.009167979 -0.008059824 -0.0065734014 -0.022982992 -0.0056645526 -0.37624395 -0.41294393
-0.0058520045 -0.024533104 -0.05888874 -0.0051231943 0.04198974 -0.0061023757 0.016152209 0.011056393
-0.006004148 -0.0050708875 -0.33885852 0.10971893 -3.99822e-06 -0.005959852 -0.000862808 -0.005158973
-0.024226615 -0.0057697105 -0.0058996417 -0.011133993 -0.08128361 -0.000707167 -0.00116845 -0.026648726
-0.007809111 -0.010002943 -0.0074882084 -0.013471913 -0.005388747 -0.14750554 -0.5037224 -0.012894375
-0.005842724 -0.008932531 -0.010568174 -0.23086813 -0.0054379175 -0.047027532 -0.005155417 -0.0055685206
-0.006444439 -0.0050454577 -0.005865469 -0.017028518 0.0065169013 0.013247317 0.0052602068 0.004912218
0.07208283 0.12350697 0.01550139 0.002484598 0.015270004 0.0055557266 0.0126382215 0.006145786
0.1433968 0.38803893 0.012366117 0.0054019913 0.1097033 0.07064093 0.000603507 0.005246742
0.005242531 0.004944607 0.019185705 0.013721118 0.0060916846 0.0054722605 0.018214324 0.000193484
0.0054622795 0.018665293 0.01163894 0.005376498 0.0059354412 0.08616318 0.017022904 0.009239495
0.2243452 0.0050963173 0.005182063 0.013945438 0.006617225 0.0062259478 0.005340309 0.015148191
0.0067929015 0.014824899 0.006198552 0.005136855 0.018183589 0.0055501084 0.0060738428 0.005469338
0.028699681 0.011264452 0.0061309114 0.0060042986 0.015428879 0.0043740124 0.005793261 0.02542027
0.011583548 0.0065084556 0.14778027 0.3692665 0.011186283 0.021493891 0.12035494 0.005376996
0.00592156 0.008326965 0.000919614 0.0049850885 0.0055902023 0.013046836 0.0060567143 0.010781493
0.005862761 0.0057059345 0.000517548 0.005552109 0.005827314 0.009305098 0.00543309 0.0057801646
0.021355687 0.005909513 0.20815763 0.016378844 0.005312592 0.013842777 0.0063425093 0.0030580435
0.0057445057 0.017846828 0.006526283 0.005825232 0.0063460767 0.005740919 0.01859557 0.021346955
0.006879741 0.012854275 0.005786673 0.010424962 0.095969655 0.0055123903 0.005862137 0.0071700225
0.015310002 0.02407756 0.016242687 0.0059965067 0.15200274 0.400515 0.010659911 0.0057933987
0.1474367 0.09014486 0.005557451 0.0058628432 0.005784411 0.0056232014 0.019763315 0.005879366
0.0074689216 0.0059160553 0.02173203 0.000352616 0.000832333 0.018840117 0.013782639 0.008900832
0.006184827 0.005828413 0.0059178513 0.010898758 0.22924072 0.005570743 0.0055609015 0.005825507
0.0074099773 0.0046450053 0.0058112354 0.024583625 0.0068406523 0.015747968 0.005795884 0.000276205
0.0060029756 0.024756454
00000000: b374 b7bd 7bb0 c4bc 211b edbb e843 97bc
00000010: a772 b6b9 f049 a9bb 77bd debb 8efc 0dbc
00000020: 81a3 05bc 735c ebbb ee82 1abc e0e2 07bc
00000030: e1cf 0bbe d049 bebc 62fc 0bbc 6149 28bc
00000040: 1ae4 5dba 2979 15bc baaf b9bc 9b35 ffbb
00000050: 0efe eabb 5715 d9bb 79ee 15bc 4379 9ebb
00000060: 232b d6bb 91ce 05bc 1ba9 08bc 4567 17bc
00000070: 2905 c0bb 380f 18bc f545 f4bb b603 11bc
00000080: 0258 16bd f1c4 8abc dae9 00bc cb75 11bc
00000090: 8e03 1dbc 48fe 0bbc fca5 6abc a337 febb
000000a0: 2825 09bc 5309 043c da01 c9bb 00db 0bbc
000000b0: 9fff 6abc 1c88 b8bb abfe 18bc f640 50bc
000000c0: 052f 0dbc 4a35 16bc 5a0d 04bc b065 d7bb
000000d0: d446 bcbc b69d b9bb 0ca3 c0be 636d d3be
000000e0: 2cc2 bfbb a6f9 c8bc 5235 71bd 78e0 a7bb
000000f0: 6ffd 2b3d 70f6 c7bb a351 843c e025 353c
00000100: 72be c4bb b029 a6bb dd7e adbe 52b4 e03d
00000110: 7328 86b6 dd4a c3bb 112e 62ba 9a0c a9bb
00000120: e576 c6bc d70f bdbb c851 c1bb 5a6b 36bc
00000130: 0578 a6bd 2d61 39ba ad26 99ba 6e4e dabc
00000140: 92e3 ffbb 62e3 23bc a55f f5bb 4cb9 5cbc
00000150: 1694 b0bb b10b 17be f4f3 00bf ee42 53bc
00000160: 5274 bfbb c059 12bc 2226 2dbc b268 6cbe
00000170: 8f30 b2bb f19f 40bd c6ee a8bb 2378 b6bb
00000180: df2b d3bb 5e54 a5bb 1f33 c0bb 647f 8bbc
00000190: bb8b d53b 460b 593c d05d ac3b acf6 a03b
000001a0: 2aa0 933d 39f1 fc3d 8bf9 7d3c a3d4 223b
000001b0: 0a2f 7a3c d00c b63b 8b10 4f3c 9762 c93b
000001c0: 9cd6 123e 0aad c63e 419b 4a3c 3003 b13b
000001d0: 20ac e03d 31ac 903d ab34 1e3a ddec ab3b
000001e0: 8ac9 ab3b 5f06 a23b 572b 9d3c 8ace 603c
000001f0: c19c c73b a650 b33b 3536 953c f7e1 4a39
00000200: ecfc b23b f5e7 983c 41b1 3e3c 562d b03b
00000210: 177e c23b 5276 b03d 9e73 8b3c 4061 173c
00000220: c0ba 653e 02ff a63b 4cce a93b 687b 643c
00000230: 4ed5 d83b 0903 cc3b c2fd ae3b 1e30 783c
00000240: fd96 de3b 22e4 723c 391d cb3b 1053 a83b
00000250: c0f5 943c afdd b53b 1607 c73b 2238 b33b
00000260: 981b eb3c 898e 383c d0e5 c83b b5bf c43b
00000270: 69c9 7c3c e053 8f3b 65d5 bd3b 2c3e d03c
00000280: ecc8 3d3c e244 d53b b653 173e 8010 bd3e
00000290: ac46 373c f513 b03c a77c f63d 8331 b03b
000002a0: a509 c23b d36d 083c 4012 713a f459 a33b
000002b0: 042e b73b 65c2 553c 6777 c63b dca4 303c
000002c0: 671c c03b d9f8 ba3b 0fac 073a 77ee b53b
000002d0: 0ef3 be3b 6974 183c 1008 b23b 8967 bd3b
000002e0: 1ff2 ae3c 97a4 c13b 4627 553e ed2c 863c
000002f0: 4015 ae3b d1cc 623c d3d4 cf3b 7569 483b
00000300: 683c bc3b 8333 923c 6eda d53b 96e1 be3b
00000310: c0f2 cf3b 521e bc3b bd55 983c cfdf ae3c
00000320: 736f e13b bd9a 523c 229e bd3b 76cd 2a3c
00000330: bd8b c43d 48a1 b43b 2b17 c03b 82f2 ea3b
00000340: cdd6 7a3c 4e3e c53c 620f 853c 587e c43b
00000350: 9ba6 1b3e 4d10 cd3e e8a6 2e3c 8dd6 bd3b
00000360: a5f9 163e de9d b83d 471b b63b 181d c03b
00000370: 288b bd3b d542 b83b ade6 a13c b2a7 c03b
00000380: dbbd f43b 78db c13b 5f07 b23c 52df b839
00000390: ec30 5a3a 9756 9a3c 94d0 613c ccd4 113c
000003a0: 17aa ca3b 46fc be3b 89ea c13b b490 323c
000003b0: 14be 6a3e c78a b63b 3938 b63b e5e3 be3b
000003c0: 65cf f23b 2135 983b 2d6c be3b 9963 c93c
000003d0: 8d27 e03b e201 813c 66eb bd3b 9ccf 9039
000003e0: 9cb4 c43b 0cce ca3c

target_net.all_linears.6.bias f4 [5]
-0.07434275 0.051697332 0.10707953 0.056493223 0.045280997
00000000: 0341 98bd 95c0 533d 834c db3d 7065 673d
00000010: 9178 393d
