model/reassure_format/trainset1000-lr0.01-weight_decay0.0001-kcoeff0.5-support_lossSmoothL1Loss()-accuracy_loss<function MnistArgParser.setup_rest.<locals>.ce_loss at 0x7fa9497235e0>-rapair_radius0.02-.pt (torch, 452277 bytes, 118 tensors)

target_net.conv1.weight f4 [32, 1, 5, 5]
00000000: 3054 843d 4809 be3d d1fe a3be 76c7 94be
00000010: eb63 8fbe 30c8 c5bd 1ca4 1a3d 511b 0dbe
00000020: c091 bfbe 0ae6 7fbd 3fd9 633e 08bf 433d
00000030: 3468 2abc 15a7 fd3d 0795 2cbe ca82 9b3e
00000040: cc17 803e 9075 ee3e 4cb2 e83e ebb9 bc3e
00000050: 53d6 d4bd da55 8f3e 19ac 703e 2d32 d33e
00000060: 72a8 373e 4a59 53bd f50e 813b 72a0 73be
00000070: 2a56 70be d12b 5b3d 20e1 953e 1dec 16bd
00000080: 6ee3 f3bd c594 90be 699b 52be 3b84 8a3e
00000090: 77f0 393e 83bd 693d 4686 583d 0722 50be
000000a0: 7361 8e3e 5ecc bd3d b562 e4bd 3743 aa3c
000000b0: df55 29be 4d3a 1f3d 8b30 6b3e 10cf aa3d
000000c0: 1eff 5ebd f162 6f3e 3359 9f3d 74b6 2a3d
000000d0: cfe7 73be 3c0a b73d f9c8 65be eb3c 63be
000000e0: b2af 80be 230a a4be 0b86 82be ce5c f93c
000000f0: 767a 13be b4a4 813d f5e9 893d 48bd c03d
00000100: 31c3 8c3e f121 9d3d 0201 7a3e 9511 433e
00000110: b461 323e 61d7 d03d 573e 8d3e c00c d43d
00000120: 9640 2f3e 649f cf3d 93e1 5e3e bc8d 91be
00000130: b508 8dbe 0a49 103e f4c6 a03e 87f6 493e
00000140: 591d 82be a6f0 d9bd 90ab 413e b37a 2c3e
00000150: 93ab 203b c20f 84be 125c 533e 6db6 4b3e
00000160: fff8 abbc 5558 403e e43a 063e f49c 843e
00000170: b293 753e 401a 613e 3d3b ebbb 218d 39bd
00000180: 8371 1e3e cbe1 0fbe 1404 1e3e 9fb7 fdbd
00000190: be35 323e 6be3 323e 76e8 d3bd b1b4 15be
000001a0: 5d74 783e b7fd e2bd 7c45 a8bd e6f7 553d
000001b0: 0772 d83d a1b7 153e 39b1 33be 3872 633d
000001c0: 556c a5bd 74f2 39bd 9266 a83e 7c49 183e
000001d0: 87d1 ce3d 08a2 04be 93bd 933e 7f9e 943e
000001e0: 23e7 ebbc 9c93 51be e48e 01be 7032 183e
000001f0: 1f4c 783e 9d6b 0bbe 6cd3 18bd f4f7 23bc
00000200: 5e8c 963d 21ca 1abe bc32 1cbb f1bf 6fbd
00000210: eefc 97bd 534b 09be 78a5 c3bd 4c62 11be
00000220: 6cd0 a0bd cb82 263b 493a 9bbd 307f 08bd
00000230: 328c e63d ced9 013e f074 f93b 754e 05bd
00000240: fcb4 3b3e 6545 6fbd f519 84bd 7b77 a5bc
00000250: 3fe6 d1bd 5140 293e 108e c7bd 2e2f 263e
00000260: eb2d e03d 86e7 ca3d e80b f6bd 7c96 5fbe
00000270: c9ea 1dbe 711e 4bbe 3621 043d ddee 043e
00000280: 71e9 dc3c c9a9 f7bd 36e7 073e 7c5a f63d
00000290: d0ca 493d 52ba 263e 4f18 193e 19e1 0b3e
000002a0: 4bbb 54be 6c4b b3bd 9b92 b63b 114e a2bd
000002b0: e898 6cbe cc03 12ba bd00 5e3d 477f 9fbd
000002c0: 002e 1f3e 1007 ecbc 75b6 823d ffb3 c0bd
000002d0: ae61 a13e 5f03 853e 448d ad3d 1413 acbe
000002e0: 64f4 cabe 26c2 a63e 8474 a53e 681b 67be
000002f0: 0efe 44be 403c 05be cad8 903e 2177 673e
00000300: ab33 aa3e 82a4 bcbd b927 3abe 9959 123e
00000310: 4d6c 853c 9a9d b43e 0097 b93d 2585 b13d
00000320: 8241 a03d c0e5 2cbd 5c1a 223e e49a dabd
00000330: ecb7 e2bd 1be0 ee3d aa76 fc3c 36c7 f9bd
00000340: acbe 77be ccdd 9bbe aa6c 873e 8711 ad3e
00000350: 33b3 4ebd 1236 20be 3c27 4cbe ee94 543d
00000360: 3684 113e 869a 1c3e ed76 a33e 73b3 8f3e
00000370: 0ce0 58be f179 983d 76e7 883e da74 733e
00000380: 7985 83bd 307a 103d 87e7 623e 1a89 003d
00000390: 36c1 8cbc 5f73 013e 3019 453e f535 363e
000003a0: 389c 4c3e 3af0 143d fca6 5fbe 36f5 7d3d
000003b0: f6e8 0c3e 0871 a23e 2a42 1d3e 8d48 0a3e
000003c0: 8e60 8bba 4e02 89be 13df 1dbd 8318 1d3e
000003d0: c12b 30be fdbb 2bbe c261 fabd 02cb 52be
000003e0: 6e5a 103e a033 54bd 502a 96bd 53d1 fdbd
000003f0: 61c7 953d 0c84 3e3e 5d7f 8ebd e22a 0c3e
0.0646137 0.09279114 -0.32030347 -0.29058427 -0.2800592 -0.09657323 0.037754163 -0.13779952
-0.37415886 -0.06247524 0.22250842 0.047789603 -0.0104008205 0.12385384 -0.16853724 0.30373222
0.25018156 0.46574068 0.4544853 0.36860594 -0.103924416 0.27995187 0.2350315 0.4124922
0.1793535 -0.051598825 0.0039385506 -0.23791674 -0.23470369 0.053508583 0.2927332 -0.03684627
-0.11908613 -0.28238502 -0.20567097 0.2705401 0.18158136 0.057065498 0.052862428 -0.2032548
0.27808723 0.092674956 -0.11151639 0.020784004 -0.16536663 0.03887396 0.22967736 0.08340275
-0.054442517 0.23377587 0.07780685 0.041677907 -0.23818897 0.08937499 -0.22439946 -0.22191207
-0.25134045 -0.32038984 -0.25492892 0.03043976 -0.14402184 0.06330243 0.06734077 0.094111025
0.2749267 0.076724894 0.24414447 0.19049676 0.17420083 0.1019733 0.27586624 0.10353994
0.17114481 0.10137823 0.21765737 -0.28428447 -0.27545705 0.14090362 0.3140179 0.19722949
-0.25413015 -0.10641603 0.18913102 0.16843681 0.0024516329 -0.25793272 0.20640591 0.19893809
-0.020992754 0.18783696 0.13108402 0.25900996 0.23982123 0.2198267 -0.0071786926 -0.045300607
0.15472989 -0.14050977 0.15431243 -0.123885386 0.17403314 0.17469566 -0.10347073 -0.1461971
0.24263139 -0.110835485 -0.08216378 0.052238367 0.10568624 0.1462083 -0.17548074 0.05552885
-0.08077303 -0.045397237 0.32890755 0.14871782 0.10098558 -0.12952435 0.2885557 0.29027173
-0.028796738 -0.20466465 -0.12652165 0.1486299 0.24247788 -0.1361527 -0.037311003 -0.010007847
0.07350992 -0.15116169 -0.002383395 -0.05853266 -0.074212894 -0.1340764 -0.09553045 -0.14197654
-0.07852253 0.0025407549 -0.075794764 -0.03332442 0.11257209 0.12680742 0.007612817 -0.032545526
0.18330759 -0.05841579 -0.064502634 -0.020198574 -0.10248994 0.16528441 -0.09743893 0.16228935
0.10946258 0.09907441 -0.1201399 -0.21834749 -0.15421595 -0.19835831 0.032258235 0.12981744
0.026966782 -0.12092931 0.13271794 0.12028977 0.049265683 0.16282013 0.14950679 0.13660087
-0.20774572 -0.0875462 0.005571676 -0.07925046 -0.23105204 -0.0005570024 0.054199923 -0.07787948
0.15544891 -0.028811961 0.06382457 -0.094093315 0.31519836 0.25979134 0.0847421 -0.33608305
-0.3963958 0.32569999 0.32315457 -0.22569048 -0.19237539 -0.13011265 0.28290397 0.22604038
0.33242545 -0.09211065 -0.18179215 0.14291991 0.016286993 0.3527649 0.09062004 0.086679734
0.078249946 -0.042211294 0.15830368 -0.10674074 -0.110702366 0.116638385 0.030818302 -0.121961996
-0.2419383 -0.30442655 0.26450092 0.33802435 -0.050463866 -0.15645626 -0.19936842 0.051899843
0.1421059 0.15293321 0.3192667 0.28066596 -0.21179217 0.074451335 0.2673909 0.23775044
-0.06421942 0.035272777 0.22158633 0.03138075 -0.017181974 0.12641667 0.1924789 0.1779402
0.19981468 0.03636191 -0.21841043 0.06200143 0.13760743 0.3172686 0.15357271 0.13504238
-0.0010633634 -0.2675957 -0.03854282 0.15341382 -0.17204191 -0.1677093 -0.12225677 -0.20585254
0.14096996 -0.051807046 -0.07332289 -0.12393441 0.07313419 0.1860506 -0.06957886 0.13688233

target_net.conv1.bias f4 [32]
00000000: 2b6c 1cbb d2ba 523d 7d0c 973a 2993 acbc
00000010: 81cb 1ebe 6dd2 db3d 79c5 123e c8b2 bbbc
00000020: 19cd 763c 6f81 8dba 1135 703e 47c4 82bd
00000030: 2157 77bd 76bf e93d 56ef d3bd b943 a13d
00000040: ebfe bfbd 729e c73a 78f5 17bb 847f 7d3d
00000050: 1e16 e0bc e68c d1bc e68f 5cbc 5a6c 44be
00000060: b9cf 1cbe b291 583c cd60 84bd 8286 33ba
00000070: 10ca 7dbd 19ef 6fbd 8260 c3bd 13da 4c3e
-0.0023868184 0.051447697 0.0011524108 -0.021066265 -0.15507318 0.10733495 0.14333142 -0.022912398
0.0150635475 -0.001079602 0.23457743 -0.06385093 -0.060385827 0.114134714 -0.10348384 0.07874245
-0.093747936 0.0015229716 -0.0023187082 0.061889187 -0.027354296 -0.02557988 -0.013462042 -0.19181958
-0.15313615 0.01321833 -0.06463776 -0.00068483513 -0.06196028 -0.05857763 -0.09539892 0.20005064

target_net.conv2.weight f4 [64, 32, 5, 5]
00000000: 2a26 963c 6158 263d 5c3f 923b 0a5c 18bc
00000010: 2d1d 0e3b 7aa9 e53c 3328 d53b d84a 2c3b
00000020: e1ef ae3c 2543 1dbd c665 0bbc cfa7 2cbd
00000030: 290c 6c3d e57f 933d 011a d83c 095f 9e3b
00000040: dc5c 04bd 2b42 5abd b621 653d 0f00 693d
00000050: c9bb 693c b940 893c 9cb5 7abd e5fe 8abd
00000060: c12d 03bd 9e19 f73b 3314 f9bc c1d6 08bd
00000070: 64ef 23bd f1e4 24bc 2110 443c 6a80 01bc
00000080: 3460 a1bc 35b9 ccbc 3fcd 05bd c8e6 d43b
00000090: 46b5 3e3a 9da2 803b c0b3 6f3b e8ff a63b
000000a0: 9f79 0bbc b10d 053a 26fa f0bc b9c1 103d
000000b0: 27a6 6c3d 02d7 8d3c 600b 30bc 471f 04bd
000000c0: e8ff b9bb 56d8 f1ba 95ee 603c bc4e 76bc
000000d0: 3a3e 9fbc 9a12 b53c a0af 8dbc 172e 393c
000000e0: d262 773c 1ab2 183c 5cf4 76bc 0ecd ef3c
000000f0: 0d5c 0bbd d156 07bd 8c08 12bd 992b eb3c
00000100: 03ba e2bb 5de7 773c 5a6a 5fbd a426 fabc
00000110: b36a 33bd 427e cb3c 0fbd 8cbc 49be a6bc
00000120: 4c53 02bd 4d56 5cbc d3f4 27bb 0120 afbb
00000130: 26e6 30bd 2670 883c 418e 063d 225a 6d3a
00000140: c2f2 243c a69e c13c cce4 273d 9761 1d3d
00000150: 37f9 f5bb b3c0 8e3c 4ed1 e93b c0c5 383d
00000160: 44dd ba3c e55c 9bbc 0db8 323d 3fd9 f5bc
00000170: 8087 ea3b c9fa 8e3b b3bd 81bc 9408 6f3c
00000180: 9fa2 ccbb 4087 69bc dbb9 b93b 87e5 26bd
00000190: 2eee 723c 3cb2 c73c 5c4b ffbb 88b4 66bc
000001a0: 4ada 583c d4b7 04bc dde4 1a3d 8f08 2b3d
000001b0: ccab 86bb 96ef 473b ec1a 843c 354c df3c
000001c0: 0052 7a3d a4cc 043d f3dc 62bc fe5d 18bd
000001d0: 5589 2a3c f086 303d 221b 46bc 9322 44bc
000001e0: 2c46 ea3b 9086 8d3c 8345 57bd a006 22bd
000001f0: 08dd acbc 868a 8fbb 9292 86bc 8877 b0bb
00000200: bf1b 043d 7876 a43c 36b9 a5bc e81b 563c
00000210: 5091 f6bc 8608 ebbb 8e73 e7bc 370e edbc
00000220: a80f c9bc 9ef5 4bbc 6ef7 2fbd ff4f 94bb
00000230: 9931 be3c 37dd 41bc 686f 0fbc a8e4 353c
00000240: 8dd7 16bd c94d 203c 0446 8abc 57b0 133c
00000250: 8bf6 66bc fc38 d53c d74d 3e3c 3b9e 083b
00000260: a138 d1bb 55b4 633a 7a21 fbbc 015a 6abc
00000270: abae ff3c bd45 00bd 13fd e43b d527 943c
00000280: c4b3 be3c acfe 073d 431a bebc 70de e0bc
00000290: 6337 043b 4a38 67bc ee8c 053c 7af1 dc3c
000002a0: c9b1 e23a 9a7f 34bc c71b c03c 88c6 3fb7
000002b0: 582b 023c f4d6 623c 926b 29bc 5fa8 753b
000002c0: 857e ecbc 5a39 60bc 84f2 0fbd 9f9b 04bb
000002d0: c565 2fbd 8313 a03c cb20 433c 1761 afbb
000002e0: 5761 8f3b 2375 ae3b 9e9d 0d3d 50ec b13b
000002f0: 3b39 993d c29d cd3b 52a5 96bc 5adc 363d
00000300: 0be5 7fbd 937b 913c 5f03 0f3d 11c1 d43c
00000310: e44d eebc 393f 37bd 139d 79bd b105 9c3c
00000320: b59c 5ebc 5778 be3c dc1a dd39 97d6 a6bb
00000330: 5be5 293d 7531 e3bc 3753 abbc 423c 2d3d
00000340: 4f8b 403d 0408 bebc 8f34 eebc cbb3 f5bc
00000350: 5bf7 073d 18af af3c bd09 fd3c e94c eebc
00000360: 9abe a7bc b326 9b3a 2127 fc3c 44ea 663d
00000370: 7645 e93a fe30 19bc 81ae b8bc 6334 2dbd
00000380: 0251 3d3c ed55 a33c 9679 683c 63d9 a8bc
00000390: 8a0e 093c 625e bf3c 92c4 3cbc 6233 16bd
000003a0: 810a df3a 48f9 1d3c 990c ac3b af9a 19bc
000003b0: 80c9 02bd 179d e03c a8a0 433c 0e31 8d3b
000003c0: defd 05bd fba8 12bd 3e63 4a3d 7781 203d
000003d0: 7ee5 eb3c 7c77 f13c bb37 29bd 67b3 11bc
000003e0: 3f3d 1ebc 9353 94ba 796f bc3c f456 b2bc
000003f0: e4f0 cc3c de0e 9dbb b823 c5bb eae8 1bbd
0.018328745 0.04061163 0.0044631194 -0.009299288 0.002168487 0.028034914 0.0065050363 0.0026289728
0.021354618 -0.038394112 -0.008508151 -0.042152222 0.057628784 0.07202128 0.026379587 0.0048331064
-0.03231512 -0.05328576 0.055940352 0.05688482 0.014265963 0.016754495 -0.061208352 -0.067868985
-0.032026056 0.0075408956 -0.03040514 -0.03340793 -0.040023223 -0.0100643495 0.011966736 -0.007904151
-0.019699194 -0.024990657 -0.03266644 0.006497238 0.00072749367 0.003925635 0.0036575645 0.0050964244
-0.008512883 0.00050755875 -0.029416155 0.035341 0.057775643 0.017314438 -0.0107448995 -0.03225639
-0.0056762584 -0.0018451314 0.013728757 -0.01503342 -0.019438852 0.022103596 -0.017295659 0.011302493
0.015099244 0.0093198065 -0.015072908 0.029272582 -0.034023333 -0.03304178 -0.035652682 0.028707312
-0.006919147 0.015130845 -0.054544784 -0.030536003 -0.04380293 0.024840478 -0.017179994 -0.020354407
-0.03181772 -0.01344831 -0.0025628104 -0.0053443913 -0.043188237 0.016655039 0.032850508 0.00090542634
0.010067644 0.02363522 0.040989682 0.038423147 -0.0075065154 0.01742587 0.0071355468 0.045110464
0.022810586 -0.018965194 0.043632556 -0.030010818 0.007157266 0.004363392 -0.015837526 0.0145894475
-0.006244972 -0.0142534375 0.0056679077 -0.040746238 0.014827294 0.024376981 -0.007790966 -0.014081128
0.013235638 -0.008100469 0.037815917 0.04175621 -0.0041098353 0.0030507795 0.016126119 0.027258018
0.061113358 0.032421723 -0.013846624 -0.037199013 0.010408719 0.043097436 -0.01209143 -0.011971134
0.0071494784 0.017276078 -0.052556526 -0.0395571 -0.02110149 -0.004380527 -0.016427312 -0.005385343
0.032253023 0.020076022 -0.020229917 0.013068177 -0.030098587 -0.007172647 -0.028253343 -0.028937442
-0.024543598 -0.012448696 -0.042960577 -0.004526138 0.02321701 -0.011832527 -0.008754589 0.011101879
-0.03682666 0.00978417 -0.01687909 0.009014211 -0.014096866 0.026028149 0.011615238 0.0020846266
-0.0063849245 0.00086862344 -0.030655611 -0.014303685 0.031211218 -0.031316508 0.0069881766 0.0180854
0.023279078 0.03320186 -0.023205882 -0.027449816 0.0020174615 -0.014112541 0.008151276 0.026970614
0.0017295416 -0.011016751 0.023450745 -1.1430711e-05 0.007944904 0.013845194 -0.010340588 0.003748439
-0.028868923 -0.013685549 -0.03514339 -0.002023436 -0.042821664 0.019540554 0.011909674 -0.00535215
0.0043756175 0.0053240224 0.034574144 0.005429782 0.07481619 0.0062749097 -0.018389378 0.044643737
-0.06247429 0.01775912 0.034915324 0.025970967 -0.029089876 -0.04473803 -0.060940813 0.019045683
-0.013587167 0.023250742 0.00042172417 -0.005091499 0.041478496 -0.027733544 -0.020913703 0.042293794
0.047007855 -0.023197182 -0.029077796 -0.029992959 0.03319488 0.021445796 0.030888433 -0.029089408
-0.020476628 0.0011837095 0.030780377 0.056375757 0.001779719 -0.00935006 -0.022544147 -0.042286288
0.011554958 0.019938434 0.014189145 -0.02061147 0.008365283 0.023360435 -0.011521475 -0.036670096
0.001701668 0.009641953 0.005250525 -0.009375258 -0.031930447 0.027418656 0.011940159 0.0043088263
-0.03271281 -0.035805684 0.04941105 0.039185967 0.028795954 0.02947592 -0.041312914 -0.0088928705
-0.009658157 -0.0011316411 0.023002373 -0.021769978 0.02501721 -0.004793032 -0.006016221 -0.03806392

target_net.conv2.bias f4 [64]
00000000: ca54 ee3c 96f5 9d3c 77f4 2e3c 9786 75bb
00000010: 70ac 6c3c 9901 2dbd ee00 10bd 5aba 64bc
00000020: 5c23 1dbd a549 dfbc 2cd7 043d cc4f b0bc
00000030: f17b 47bb 9cf1 1dbd 5a77 093c c477 913a
00000040: 3f96 fb3b 76b2 d8bc 1502 16bd b8e0 523a
00000050: 9a45 27bd f6d2 c03c 1077 06bd 3675 ac3b
00000060: d39e df3c 7076 873b 216d 4dbc 1c9c 5dbc
00000070: 9550 86bc 91af 0bbd 3ed9 ee3b 826d e5bc
00000080: b1a0 243d 6828 153d 5607 a03c 6fd8 7eba
00000090: 0cd2 1bbd 90c0 50bd 7d26 36b8 53f9 983c
000000a0: e396 2dbc 94e9 7e3c 5cfc 263c c65d c43c
000000b0: 355e 54bd 80ad 7e3a ed5b 03bd 0399 88bd
000000c0: 22ab f0bc e6d3 27bd 21bd 2cbc ff27 a4bc
000000d0: 633c 46bb d333 4439 8855 d7bc 37e0 7fbc
000000e0: c78f f0bb 5d56 363c b63e 123c 7a23 34bd
000000f0: 1b6a ecbc b4f3 4e3b 1352 0d3d 1c2a 09bd
0.029093165 0.019282144 0.010678402 -0.0037464255 0.014445409 -0.04223785 -0.035157137 -0.013960445
-0.0383638 -0.027256796 0.032431766 -0.021522425 -0.0030438865 -0.038560495 0.008390272 0.0011098315
0.007677823 -0.026452284 -0.03662308 0.000804435 -0.04083786 0.023538094 -0.03282839 0.005262996
0.027297413 0.004133992 -0.012538225 -0.013525989 -0.016395846 -0.03410298 0.007289081 -0.028006319
0.04019231 0.036415488 0.019534748 -0.0009721582 -0.038042113 -0.050964892 -4.3428026e-05 0.018673575
-0.010595056 0.015558619 0.010192003 0.023970496 -0.051847655 0.00097151846 -0.03207009 -0.0666981
-0.029378477 -0.040973566 -0.010543139 -0.020038603 -0.0030248396 0.00018711323 -0.026285902 -0.015617422
-0.0073413583 0.011128989 0.008926084 -0.043979146 -0.028859189 0.0031578364 0.0345021 -0.033487424

target_net.fc1.weight f4 [32, 1024]
00000000: 3398 633c 32bb d33c bfb2 823c f668 223c
00000010: cf37 9abc a71b 2e3c 1a58 b9bb 0e35 1bbc
00000020: ae5a 1b3c 6b79 a7bc 2b92 a1bb d9c1 02bd
00000030: 299a dabc 972c 9ebc b1f5 d93c f723 8bbb
00000040: 829b 4f3c 3a22 eb3c 2ab1 f53c 0ddd e2bc
00000050: 4bfd fbbc b281 7dbc 956a b23c b462 9b3b
00000060: 3b7a 9abc 10bf d63c 0263 66bc 2762 f83c
00000070: 7d4c 03bd 20c1 85bc abea 00bd 386d 76bc
00000080: c288 86bc 54c3 debc 1fe4 bc3c e643 75bc
00000090: 5e33 833c 9dfe 9abc 9165 0f3a dc98 8ebc
000000a0: 64d1 e03c bf0c b73b c228 edbc 688b 8dbc
000000b0: cc9b f2bc fdc1 7fbb f019 85bb 38a3 7abc
000000c0: 5529 f6bb 842f 71bc d60f c6bb 0ab3 d0bc
000000d0: d0c0 8ebc 4161 c8bc 0524 943b 1270 96bc
000000e0: 9d84 18bb a943 913c 4d65 083c 5544 febc
000000f0: fc21 2dba 4d88 68bb 7119 a33c b812 8fbb
00000100: 620d b33c c7eb 72bc d382 563a 2973 853c
00000110: fe1f 943c 5649 18bb 3950 d83c 2672 cf3c
00000120: 3469 8f3c 7ed5 32bc b120 55bc 253d 94bc
00000130: a73b 9b3a f225 efbc e6b9 f5bc 3cb7 313c
00000140: dd64 00bd e5f0 983c de31 503c e9aa acbc
00000150: c919 c6bc 76d4 9e3c 127e 91bc 21d9 8ebc
00000160: 6a66 78bc f467 acba d22c 96bc 83fc e4bc
00000170: 89f0 9c3c 7534 92ba 1c29 05bd e9f7 df3a
00000180: f65a e2bc 09b7 eabc c7f6 c33c a0cd ac3b
00000190: 6fa7 68bc 64f3 b0bc e9f9 6aba 4f53 d23c
000001a0: 0632 e9bb f72d c0bc 241f f23c 065f c9bc
000001b0: 58e7 2d3c 608b c43c 57e9 54bc e6d8 44bb
000001c0: 386b c93b 2d06 f43c 87c0 fbbc d634 8aba
000001d0: e730 0cbc f816 97bb 54b6 263c d08a fd3c
000001e0: 68dc 69bb fcdb cdbc 669d 3abc 4e49 b9bc
000001f0: a74d 9d3b 3cad 64bc edc6 273c b0fd aebc
00000200: 25ea df3c b635 bf3a aa1c 703c a122 09bc
00000210: d0f6 a73c eea4 1ebb 3391 863b 9572 ec3c
00000220: 3c0b 05bd 2e91 ce3b db2e e9bb 5ffc fcbc
00000230: 6e18 5b3b be6c bfbc 8ece 5a3c 8380 393c
00000240: 8bd1 6eba 8fef cebc 72ca b8bc 3c27 c8bc
00000250: dd42 79bb b944 553b 3e16 a9bc 9e45 b4bc
00000260: c156 3b3c c219 31bc 35c7 993c db8d fe3b
00000270: c1f8 0a3b 0e0f fdbc a3f2 8abc 9784 5c3c
00000280: f876 18bc 3138 82bc e297 f6bc 14ac acbc
00000290: ecae dbbc fba5 96bc f1df 0dbc 5418 5fbc
000002a0: ea2f d7bc 76cb 753c eda1 1d3b b6bf 73bc
000002b0: 91ad 163c dd12 853c eb91 c93b d2c4 d0bc
000002c0: 236a b8bc 1280 bebc 7c22 20bc 4c0f 32bc
000002d0: 65e4 febc d448 903b 97cc 7fbb dc59 e1bc
000002e0: 9cdd 643c f7a8 d8bc 33fd 09bd ee5f 27bc
000002f0: 74e3 bcbc 8159 b93c 2fa1 9a3a 0ae2 d63c
00000300: b2bc c93c 50ff 1ebc 75f2 f3bc 0d4d a8bb
00000310: fa6d 683c a5ae a23c 6b25 1e3c d203 b63c
00000320: 23a9 6fbc 637f 193c a966 38bc b1f0 aabb
00000330: b28f 243c e508 d5b9 cdf9 563c c23a 943c
00000340: 1dd0 02bd dcbc 3c3c 63ef bcbc 5fa3 e03b
00000350: 12f9 8b3c bdd4 c5bc 8ce7 70bc 6f0c aebc
00000360: c1db be3c 5e73 a0bc 0434 573c f89c 03bd
00000370: dcc1 45bc dea7 d13c 0383 18bc fe88 123c
00000380: 68d1 bfbb a8c7 063c 1b70 d33c d4aa 3d3c
00000390: 4df0 99bc f696 1d3a ce46 5dbc efca 183c
000003a0: c962 b23c 6799 b23c eaae 133c cd99 8abc
000003b0: 99ed c5bc e539 ca3c dc76 a43c c6af abbc
000003c0: d4d2 81bc 8936 c53c 44c7 e7bb b357 b8bb
000003d0: e7cf aebc f25b 65bc dfb3 203c 4066 71bc
000003e0: 21c5 b13c d01f a9bc 7947 353c df80 debc
000003f0: 1219 a0bb 4983 ae3c 1402 b23c 49f9 37bc
0.013891268 0.025846098 0.015954373 0.00991272 -0.01882544 0.01062671 -0.0056562545 -0.009473098
0.009482069 -0.020443639 -0.0049307547 -0.03192315 -0.026684837 -0.019308371 0.026606413 -0.0042462307
0.012671353 0.028702844 0.029991705 -0.027693296 -0.030760428 -0.015472816 0.021779338 0.004741991
-0.018857112 0.026214153 -0.014061691 0.03032024 -0.032055367 -0.01632744 -0.031473797 -0.015040688
-0.016422633 -0.02719275 0.023057995 -0.0149698015 0.016015705 -0.018920237 0.00054701517 -0.017406873
0.027443595 0.0055862362 -0.028950099 -0.017278388 -0.029615305 -0.0039025538 -0.00406193 -0.015297703
-0.0075122514 -0.014720801 -0.0060443683 -0.025475997 -0.017425925 -0.024460437 0.0045208954 -0.018363986
-0.0023272403 0.017732458 0.008324933 -0.031038443 -0.00066044903 -0.0035481632 0.019909592 -0.004366245
0.021856967 -0.0148267215 0.00081829465 0.016290264 0.018081661 -0.002323707 0.02640544 0.025322985
0.01750622 -0.010915158 -0.0130082825 -0.018095562 0.0011843339 -0.029192898 -0.02999587 0.010846909
-0.03134619 0.018669555 0.012707202 -0.02107759 -0.024182217 0.019388419 -0.01776031 -0.01743752
-0.015161136 -0.0013153539 -0.018331919 -0.027952438 0.019157665 -0.001115455 -0.032509908 0.0017087433
-0.027631264 -0.028651731 0.023921384 0.005273536 -0.0142000755 -0.021600433 -0.0008963631 0.02567449
-0.007116559 -0.023459418 0.029555865 -0.024581444 0.010614239 0.02399224 -0.012995086 -0.0030036508
0.0061468147 0.029788101 -0.030731453 -0.0010544311 -0.008556581 -0.0046108924 0.010175306 0.03094998
-0.003568435 -0.02512931 -0.011390066 -0.022617962 0.0048005166 -0.013957318 0.010240299 -0.021361202
0.027333329 0.0014588151 0.014655272 -0.008370073 0.020503432 -0.0024207192 0.0041066646 0.02886323
-0.032481417 0.006303928 -0.0071161813 -0.030882059 0.003343131 -0.023367282 0.013354911 0.0113221435
-0.0009110204 -0.025260715 -0.022557471 -0.02443277 -0.0038034238 0.0032542183 -0.020640489 -0.022005852
0.011434258 -0.010809364 0.018771747 0.0077683753 0.0021205398 -0.030890968 -0.016961401 0.013459346
-0.009305708 -0.015895935 -0.03010172 -0.021078147 -0.026816808 -0.018389693 -0.008659349 -0.01361664
-0.026267964 0.015002122 0.0024052814 -0.01487725 0.009196655 0.016244346 0.006151428 -0.025484476
-0.022511547 -0.023254428 -0.009773847 -0.010867905 -0.031114766 0.004403213 -0.0039031857 -0.027508669
0.013968851 -0.026447756 -0.033688735 -0.0102157425 -0.023057677 0.022625687 0.0011797304 0.02623083
0.02462611 -0.009704426 -0.029778698 -0.0051361383 0.014186377 0.019858668 0.009652476 0.022218619
-0.014627728 0.00936875 -0.011254945 -0.005216681 0.010044025 -0.00040633153 0.013121081 0.018094424
-0.031936754 0.011519637 -0.023063367 0.006855413 0.01708654 -0.024149293 -0.014703643 -0.021246163
0.023298146 -0.019586261 0.01313496 -0.03213212 -0.012070145 0.02559274 -0.009308579 0.008943794
-0.0058538206 0.008226313 0.025810292 0.011576373 -0.018791342 0.00060115696 -0.013505651 0.009325727
0.02177562 0.021801664 0.009013871 -0.016919041 -0.024161147 0.02468581 0.020076208 -0.020957839
-0.015847601 0.024073856 -0.007073315 -0.005625689 -0.02133937 -0.013998972 0.00980851 -0.014733851
0.021700444 -0.020645052 0.011064404 -0.02716106 -0.004885801 0.021302836 0.021729507 -0.011228868

target_net.fc1.bias f4 [32]
00000000: 422c 8abc df8c a0bc e416 00bd f1ab a53c
00000010: e5ce 523c db36 523c 5390 b83c 337c 78bc
00000020: d72d 3a3d bdea be3c 1a73 1aba 3fd8 c93b
00000030: c825 dfbc 2956 6a3c fe1b 023c 5d56 8f3b
00000040: 21e1 91bb 2b21 bc3b 8431 f9bc 53ee 7c3d
00000050: ba7c 0a3d 8030 6f3d 6d56 313d ebf8 233d
00000060: 3bcb 0e3d 6f05 bf3c 5bad 403d 3fee c1bc
00000070: 6f24 203c 9b79 edb9 2820 923c 94f1 2ebb
-0.016866807 -0.019598423 -0.03127183 0.02022359 0.01286671 0.012830461 0.022529757 -0.01516633
0.045453873 0.023305291 -0.0005891785 0.0061598117 -0.027239695 0.014302769 0.007941244 0.004374309
-0.0044518863 0.0057412586 -0.030419119 0.06175072 0.033810355 0.058395863 0.043295313 0.04003231
0.034861784 0.02331802 0.047040325 -0.023673175 0.009774311 -0.00045294766 0.017837599 -0.0026694285

target_net.fc2.weight f4 [10, 32]
00000000: 1e8c 5ebd 905b 9c3d f39f 99be 6b92 21be
00000010: 6741 4a3d d7f9 50be b1a7 97be b8bb 963d
00000020: 7797 c43c d691 7dbe a8d2 8cbe 6538 3d3d
00000030: 79fd 9fbb 211f 063f a956 c83e 92fc 56be
00000040: 1dea 0ebe 7546 fdbd fbe0 8bbd 7283 173e
00000050: 7efb 203f 0d3c 5bbe c6eb 153e 8406 afbe
00000060: fbcc 08bf 4c0c a6be 2c31 143e 6df8 33ba
00000070: e119 8dbb ab8e 063e 4177 27be 61f4 3abe
00000080: cdf6 b6bd 3cb7 38be 5a78 acbe 14e2 92bd
00000090: 8e94 263e 8b38 f13d 3880 83be cdd1 993e
000000a0: 3e99 a0be 92a5 bc3d 4890 2ebd ebc8 943d
000000b0: 13d6 08be a87e fbbe 2178 f83e b78a a23e
000000c0: a7a8 ab3d 61ee ec3c 82be 9abc 6afe a9be
000000d0: 922c d9be d9ae d43e a663 9abe b771 7d3e
000000e0: 0a28 18bd bb67 a83e b872 f93e 02d1 d93b
000000f0: dbc6 74be fb59 bdbc af6c a93e 7db6 7e3d
00000100: 58bf 07bc 8811 6ebd 4db0 25bd e792 f43e
00000110: d439 d9be d6c9 c3bd 289f 913e 318d 703d
00000120: 070d 8cbe e9ef b0be 0d3c 0fbf 53df 7e3d
00000130: 0dd9 6fbd 0d77 35be 0c62 f93e 7a1d 0e3e
00000140: 31bc 34be 1c6e 16be 11de d53d fd71 4bbd
00000150: 38d5 af3e 5477 b0be a630 ffbe c3c6 fc3e
00000160: 4b76 d83d 0bf7 cc3e 8002 a7be 84b7 86be
00000170: 3da7 cd3e 558d cd3d 0b16 8bbe b39d 213e
00000180: 4b79 063e 2ab4 153e 5bd7 71be 709d b0be
00000190: eaf8 d53e 9d62 883e c675 813e df3a 9bbe
000001a0: 34d1 e1bd 146c c33e 7efe a33e f5fe d6bd
000001b0: 8df2 153d 3303 2bbe fee7 c1be 807c 81be
000001c0: 00bb b83d b6cb 0dbd e962 763e 9a39 42be
000001d0: 8837 c43e 176f 3d3e 8449 89be dc02 a2be
000001e0: 788e 143f a57a 143e 1340 abbe 9a77 3dbe
000001f0: 4a42 90bd 67f4 b6bd 0ea6 1fbe 5bd5 0abe
00000200: 0d26 b23d 00de 263e 066b 453f f583 883e
00000210: 9806 273e 1d3f 8bbe 366f cdbe eb63 b8bd
00000220: 7e7b 2a3e b977 a7bd bf76 f83d e147 e8bc
00000230: a1f4 323e 2889 cd3e 2b0f 3abe 8397 1ebd
00000240: d8f3 56be c422 bd3d 819c 34be 3fce 0fbf
00000250: de4a 90be 8ace 45be 7607 373d 942f cb3e
00000260: 40b2 6b3e a53a ccbe 9fba 533e cf6b 9d3d
00000270: 8c8b c9bd 9961 04be f786 843e b07f 4a3e
00000280: 2dad cbbd 4423 643e e27f a5be ca5b 8d3e
00000290: 0d33 503e 1dcb 843d 2c55 fcbd d315 8f3a
000002a0: 3afd d33e 5876 ec3e da4c d7be 317c 2dbe
000002b0: 73b6 cabd 2ff2 fe3d 7801 41bd 1e91 473e
000002c0: 3eaf 9e3e 577f 43be 46c7 983d 7157 ef3e
000002d0: 88db bbbe dc3a e13e 3bf5 b33e 8234 70be
000002e0: 31a5 283e a1a7 08be d638 80be f121 96be
000002f0: 9115 203d c7b6 32be ea42 a53d 1b03 1b3e
00000300: b20d cebd 257b 2cbd ad3a 2fbe 881e 21be
00000310: 32b2 c13e 23b0 3f3c fb48 d1be 63c1 a03d
00000320: eade 0e3e dfe8 713d d3b8 a3be 360a 3a3e
00000330: e2e7 cabd 920c d53e 011e bfbe 2921 99be
00000340: 8781 373e e77c 803d ab6f 5b3d 2553 153f
00000350: a876 a5be bcc4 9abe a92f 3fbe b224 853e
00000360: cdb0 ccbe a408 ad3d 7517 1c3e 679d febc
00000370: fb48 b63e 8e51 68bd a458 acbe b03f 153e
00000380: b63d abba 4247 90be 4323 e23e f1b7 93be
00000390: 5d69 b6bd 9d74 81be 30e0 873e 9cca b33d
000003a0: 708f 6cbe 1ea7 5e3d 8273 e23c de22 b13e
000003b0: 97b9 8dbd 6b1f 63be f0d3 133e 1f45 423e
000003c0: 9c41 52bd c84d 02be 7187 a83e 05a0 213b
000003d0: ed9f b1bd 7612 e53d b014 06be b1b8 7abe
000003e0: 9201 6ebe 57f2 053f 06d3 b7be 942f 233c
000003f0: 93ba 70be 443f 9e3d 77cc 2f3f 6f18 29be
-0.054332845 0.07634652 -0.30004844 -0.1577851 0.04937878 -0.20407806 -0.29620126 0.07360023
0.023998005 -0.24762663 -0.27504468 0.04619636 -0.004882511 0.5239125 0.39128616 -0.20994785
-0.13956495 -0.12366954 -0.06830021 0.14796236 0.62883747 -0.21409626 0.14640722 -0.3418466
-0.53437775 -0.32431257 0.14471883 -0.00068653264 -0.0043060635 0.13140361 -0.16354086 -0.18257286
-0.08933792 -0.18038648 -0.3368557 -0.07172027 0.16267607 0.11778363 -0.2568376 0.30042878
-0.31366915 0.092112675 -0.042618066 0.072648846 -0.13362913 -0.4912007 0.4852915 0.31746456
0.08381777 0.028922262 -0.01888967 -0.33201915 -0.42416817 0.41539648 -0.3015415 0.2475041
-0.03714756 0.3289164 0.48720336 0.00664723 -0.23903982 -0.023114195 0.33090732 0.062185753
-0.008285366 -0.058122188 -0.040451337 0.47768328 -0.42426932 -0.095599815 0.2844174 0.0587284
-0.2735369 -0.34558037 -0.55951005 0.062224697 -0.058556605 -0.17721196 0.48707616 0.13878432
-0.17649914 -0.14690441 0.104427464 -0.049669255 0.3434236 -0.3446604 -0.49841803 0.49370393
0.105694376 0.4003223 -0.32619095 -0.26311886 0.40166655 0.100367226 -0.27165255 0.15782814
0.13132207 0.14619508 -0.23617308 -0.34495115 0.4179147 0.26637736 0.25285167 -0.30318353
-0.110262305 0.38168395 0.320301 -0.10497848 0.036608268 -0.16700439 -0.37872308 -0.25290298
0.090200424 -0.034618102 0.24061169 -0.18967286 0.38323617 0.18499409 -0.268139 -0.31642807
0.5802989 0.1449991 -0.33447322 -0.18502656 -0.07043894 -0.08933335 -0.15590689 -0.13557951
0.08698664 0.16295624 0.7711643 0.26663175 0.16311109 -0.2719659 -0.4012391 -0.09003433
0.16648671 -0.08177132 0.12132024 -0.028354587 0.17476131 0.40143704 -0.18169849 -0.03871871
-0.20991457 0.09235147 -0.17637827 -0.5617408 -0.2818212 -0.1931707 0.04468485 0.39684737
0.23017216 -0.39888492 0.20676659 0.076865785 -0.098410696 -0.12927856 0.2588422 0.19775271
-0.0994514 0.22279078 -0.3232413 0.27609092 0.20331974 0.06484053 -0.12320933 0.0010916538
0.41404134 0.4618404 -0.4205082 -0.16941907 -0.09898081 0.124485366 -0.04712054 0.19488952
0.30993074 -0.19091545 0.074598834 0.467464 -0.36690927 0.4399022 0.35148033 -0.2345753
0.16469266 -0.13345195 -0.25043362 -0.2932277 0.039083067 -0.17452537 0.080694035 0.15137903
-0.10061206 -0.042109627 -0.17112227 -0.15734303 0.37831265 0.011699709 -0.40875992 0.078493856
0.13952222 0.059059974 -0.31976947 0.18167958 -0.099075094 0.41611153 -0.3732758 -0.29908112
0.17920505 0.06273823 0.05357329 0.58329993 -0.3231709 -0.3022822 -0.18670525 0.2600456
-0.39978638 0.08448914 0.15243323 -0.031080915 0.35602555 -0.0567184 -0.33661377 0.14575076
-0.0013064656 -0.28179365 0.44167528 -0.28851274 -0.08906815 -0.2528428 0.2653823 0.08778879
-0.23101592 0.054358594 0.027642969 0.34596914 -0.06920164 -0.22179954 0.14436316 0.1897168
-0.0513321 -0.12724984 0.32915834 0.002466203 -0.086730815 0.11185162 -0.13093829 -0.24484517
-0.23242787 0.52322906 -0.35903186 0.009960074 -0.23508672 0.07726911 0.68671364 -0.16513227

target_net.fc2.bias f4 [10]
00000000: 69ac 993a c4a7 d03d 795d 8abd 76fd bb3d
00000010: 0c3a 7cba c4c0 3e3e 705b 09be 2ae4 10bc
00000020: 1126 8e3d 8588 ca3b
0.0011724356 0.10188249 -0.0675611 0.09179203 -0.0009621687 0.18628222 -0.13413787 -0.008843461
0.06940854 0.006180825

support_net.all_linears.0.weight f4 [10, 32]
00000000: 13b1 8e0f 85bc 09be eb06 10bf bab2 393e
00000010: e814 0fbe 2868 ac3e b44c 713e 1a84 93be
00000020: 23a4 11be 8e58 743e 84ac 31be e0d8 e1bd
00000030: 8f9d 643b 9df7 203d 7c4f b33e df6a 713e
00000040: 45a5 1dbd 7d76 c9bd b2a3 4fbd f8e9 8bbe
00000050: b63b 1a3e b5ba f63d ec3c e13e 9dcd 33be
00000060: e199 163f 6c59 b43e 71af 23be dbc8 7e3e
00000070: ce16 79be f4a4 d23d 5738 85be 1ad1 2cbf
00000080: 00ed 8f8d 29a5 0ba9 a094 192b a13e aaaa
00000090: 66a9 05aa 2f33 0528 ba8c 8dac f3e5 6529
000000a0: 6fc6 17aa 287c 5e29 f3e9 23ab 07e1 e4aa
000000b0: 172b 2c26 35f3 b1b0 e4eb 09ac 9625 842a
000000c0: 6a2f 4927 7cf4 1f29 f302 30aa c4c9 94af
000000d0: 3a46 9eb3 b874 082a c4ee dfb0 4a26 7eaa
000000e0: 2e1b b7aa 35b2 04aa 34f5 5d2a 1a5c c1a6
000000f0: 2735 35a7 b95b 052b 901d 472a 5c14 582a
00000100: dc7e c40e 195f 203e 911b ff3e 505d 293f
00000110: 4dca b4be 6d0a e2bd 95b6 103e 9d88 8b3d
00000120: 6b54 853e 9a1a 42be 8e27 2f3e fd1d af3e
00000130: 0534 833b 2d01 603d 21c8 b03e 154f aa3e
00000140: 73e9 99be 2bdf 70be 28bf 1bbe ebab 1abe
00000150: 8bc1 653e 87ef 7c3e 7ed3 693d b33a 88bd
00000160: 91d8 273e aed5 ca3d e30c e1bc 3437 213e
00000170: 77a0 a7be 31ed aabd 7b92 ca3e 138d 77be
00000180: 6357 288f f24f c63e 161c 133f da18 c13c
00000190: f156 2ebc f229 ce3e b4f4 1b3e 0ef4 d6be
000001a0: c645 693e 9167 23be 6a18 06be 9fa3 d6bd
000001b0: 22c4 ac3b 7b45 e83e 76d4 81be eab5 063d
000001c0: 03a9 463e 594e 5a3d 0410 7e3e 7026 79bd
000001d0: bff0 3d3e 53a3 0fbf 3672 08be ed00 083e
000001e0: b4aa 273e 3d54 8abe 8c5a 383e 8d25 2bbe
000001f0: a883 893e 9cc7 ba3e 2dcf 513e ac6a edbd
00000200: f635 bf8d 1819 0abe d204 7ebe 984a 80be
00000210: 8c45 603d 3550 8dbe e5af 653d a120 173f
00000220: 078c fdbb 1ff3 ad3a e6a5 7cbc b011 5f3e
00000230: d78b da3b 1fdb 143f b0f7 133e 831b 493e
00000240: 10a2 b33d bf16 993d 308f bd3e 21f5 513e
00000250: 6014 b03b d80c 7dbe 3d6d f03d a39c 9f3e
00000260: a7dd 353c 7b16 f63e af74 913e 7e7f 823e
00000270: 8e40 843d fe2a 01be 490b b6bd 7344 1c3d
00000280: 8c2d fe8e f84a 37ac 8bf3 642e 17cb e32b
00000290: 47d3 8eb3 3dbb 8eaa 37ae d5b2 b0e2 652a
000002a0: aba9 18b2 ccad bbaa 4068 0cb6 75ab afaa
000002b0: f864 0a8e c2ff 02b1 3fa5 53b7 fcd8 ceaa
000002c0: 59de 8eab c76e dc2a 3510 8b2b 5023 64b3
000002d0: 063d 60b5 ebb2 6b2c 091e 34b5 74dc 0bb6
000002e0: b445 14b5 c3fd 36ae 8554 75b4 3d96 51ab
000002f0: c476 9c2c 5783 e5aa b30a 02b2 c9fd 61aa
00000300: 34d8 d98e d517 5590 5d1c b195 088b 1a9b
00000310: c4e2 ab9d d028 9b8d f040 13ab 0410 458d
00000320: cce2 bc9c 0857 ef16 b62f 2aaa f206 8f1c
00000330: f7ae 7c15 12b0 5799 8dc9 0bb0 e4f1 9c90
00000340: 85b7 7a11 eb59 948f dcdc c718 9963 5898
00000350: b2d0 07af 4b26 bc1c 8fcd 2da3 2f32 14a8
00000360: 7d5f 2321 dde6 819d b547 221d 8f7f 7e11
00000370: ff19 4395 d032 f09b b20e 911d 7403 739c
00000380: af7d 058f 28a6 11bd cf7d 923e d6f8 163d
00000390: 2eff 453e 30fa ed3e b699 51be a5f9 0dbd
000003a0: 1f8e 4abd dddb 333e fe78 4f3e 2095 25bf
000003b0: 1906 78b9 21cd e33d 7a4e f73d 6ef1 c83e
000003c0: ed77 9e3e 2ef8 303e 393c 1e3e a6b9 af3e
000003d0: 1728 16bd 3618 03be 2385 283e b3a4 753e
000003e0: 3d5c 83be fbb1 98be 1711 fc3e cd6d af3e
000003f0: 25eb a53d efec 293e 84ee 8ebd 7393 943e
1.4070488e-29 -0.1345082 -0.56260556 0.18134585 -0.13972819 0.33673215 0.23564416 -0.28811723
-0.1422277 0.23861906 -0.17350966 -0.11027694 0.0034883951 0.039298642 0.3502158 0.23575924
-0.03848769 -0.09837053 -0.05069322 -0.27326941 0.1506184 0.1204733 0.43991792 -0.17558904
0.5882855 0.35224473 -0.15984894 0.24881308 -0.24325106 0.102853686 -0.26019546 -0.67506564
-8.870111e-31 -3.1007454e-14 5.456278e-13 -3.0241524e-13 -1.1871545e-13 7.394082e-15 -4.023085e-12 5.1047664e-14
-1.348034e-13 4.940159e-14 -5.8233903e-13 -4.065708e-13 5.9732885e-16 -1.2947569e-09 -1.9599817e-12 2.347399e-13
2.7920057e-15 3.551715e-14 -1.5632963e-13 -2.7064406e-10 -7.3702225e-08 1.2119721e-13 -1.6293247e-09 -2.2573016e-13
-3.252619e-13 -1.1785783e-13 1.9713815e-13 -1.3417029e-15 -2.514761e-15 4.737838e-13 1.7685007e-13 1.9191717e-13
4.843989e-30 0.15661277 0.4982572 0.6615801 -0.35310593 -0.11037145 0.1413215 0.06813166
0.26040968 -0.1895546 0.17104933 0.34202567 0.004004004 0.05468862 0.34527686 0.3326346
-0.3006092 -0.23522632 -0.15209639 -0.15104644 0.22437112 0.24700747 0.05708646 -0.06651821
0.16391207 0.099040374 -0.027471965 0.15743715 -0.32739612 -0.08346022 0.3956488 -0.2417491
-8.2998696e-30 0.38732868 0.5746473 0.02357142 -0.010640846 0.40266377 0.15230066 -0.41983074
0.22780523 -0.15957476 -0.1309525 -0.10480427 0.0052724043 0.4536551 -0.25357407 0.03288833
0.1940041 0.053297374 0.24810797 -0.060827672 0.18548869 -0.5610859 -0.13324818 0.13281603
0.16373712 -0.27017394 0.18003291 -0.16713543 0.26858258 0.36480415 0.20489188 -0.11592612
-1.1784274e-30 -0.13486135 -0.24806526 -0.2505691 0.054753825 -0.27600256 0.05607595 0.5903416
-0.00773764 0.0013271308 -0.015420413 0.21784091 0.0066695022 0.5814685 0.14449954 0.19639401
0.08771145 0.074750416 0.37023306 0.20503666 0.0053735226 -0.24711931 0.117395855 0.31174192
0.011100209 0.48064026 0.28409335 0.25487894 0.06457625 -0.12614056 -0.08888871 0.038151216
-6.2659694e-30 -2.604748e-12 5.2057508e-11 1.6185689e-12 -6.6508214e-08 -2.535419e-13 -2.4875687e-08 2.0417934e-13
-8.8861425e-09 -3.333847e-13 -2.0922307e-06 -3.1205217e-13 -1.7058428e-30 -1.9062871e-09 -1.2615054e-05 -3.6743514e-13
-1.0151421e-12 3.9156718e-13 9.881042e-13 -5.3117503e-08 -8.3535303e-07 3.3494828e-12 -6.709893e-07 -2.0840935e-06
-5.523573e-07 -4.1607395e-11 -2.2848151e-07 -7.4460213e-13 4.4469723e-12 -4.0769707e-13 -7.569429e-09 -2.0072064e-13
-5.3702826e-30 -4.2025203e-29 -7.153448e-26 -1.2783505e-22 -4.5497793e-21 -9.562438e-31 -5.231501e-13 -6.072459e-31
-1.2499422e-21 3.8667457e-25 -1.5115586e-13 9.464742e-22 5.1029018e-26 -1.11507966e-23 -5.0854326e-10 -6.190384e-29
1.9778074e-28 -1.4628562e-29 5.1663305e-24 -2.796763e-24 -1.2352322e-10 1.2450695e-21 -9.4218775e-18 -8.226532e-15
5.5352926e-19 -3.4384723e-21 2.1477593e-21 2.0076374e-28 -3.9400444e-26 -3.9737506e-22 3.8396375e-21 -8.040642e-22
-6.581612e-30 -0.03555885 0.2861161 0.036858402 0.19335625 0.4647994 -0.20468792 -0.034661908
-0.049451943 0.1756434 0.20260999 -0.6468067 -0.00023653395 0.111231096 0.12075515 0.39246696
0.3095087 0.17282173 0.1545266 0.34321326 -0.036659326 -0.12802204 0.16457038 0.23988609
-0.2565631 -0.29823288 0.4923179 0.3426346 0.08101491 0.16594289 -0.06979087 0.29018745

support_net.all_linears.0.bias f4 [10]
00000000: 626e 82be b1f8 e928 136e 5f3e bc54 d43d
00000010: 24f9 753d 75fe 8a2b 8298 f89b f50b 21be
00000020: 6fdc 3ebe 34cc c3bc
-0.2547484 2.597605e-14 0.21819334 0.10367724 0.060052052 9.876116e-13 -4.1126714e-22 -0.15727217
-0.18638776 -0.023901083

support_net.all_linears.1.weight f4 [10, 10]
00000000: 5467 9bbd 02ad c92a 39e2 e43e 9e16 dd3e
00000010: afa7 90be 8577 88b1 cf76 0ab6 0e0a 71be
00000020: fafd b93c 7770 203f dd7b 13bf e2e0 17a8
00000030: 8ebd a1bf 85f6 613e ede0 e43e e321 f92b
00000040: e6fc 4313 dbe0 9b3e 197c d23e ea8d 02bf
00000050: c509 be3e 4a3a 232b 09b3 8dbe edb5 dd3e
00000060: ab75 44be af66 e0aa 6893 bf19 a63c 303f
00000070: 2eb6 403f a52b 633e 12fe 69b5 b831 18a1
00000080: 85be 67b4 d46f 03b7 4856 5ab4 82c1 8325
00000090: 49b5 4d98 ac74 2b33 7caf 5b32 3120 1732
000000a0: 4527 49bd 75fe cb29 e7c0 b6be 7f39 363f
000000b0: 5856 3e3d 0408 2f2c 0cfb 9fa8 2d0f 543e
000000c0: 9f91 9f3e c714 343f 4c2d 8abc ccf1 dbab
000000d0: 6820 b03d 2fe1 c03e 1d8e 913d c497 51ac
000000e0: 8030 bd9a 42b5 a3be 1a3c c83d 712a 813f
000000f0: 3422 753f 9b57 7bab 9973 1abe d655 0dbe
00000100: 6802 913e d3cd 0329 0c77 cb17 0854 cebd
00000110: dc66 823e 89ab 813e 6615 8e33 1ebb 0921
00000120: 47ee dbb2 bbbc 7831 8a94 1534 aa73 849f
00000130: 2fa9 a596 a8d1 b5b2 bd5a 2732 fa3f 50b2
00000140: 367c e63e 4729 caa9 006d aabe 3b98 343e
00000150: da7a 593f 8685 9cb4 e12d 8a35 0f81 413c
00000160: 4624 2ebe fedc af3e 5c98 83be 55e0 2bab
00000170: 7cf0 8a3e 1a83 9e3e 4035 063f 139e e12b
00000180: bea9 8829 daf8 1c3f dd17 9c3d a6d7 32bf
-0.07588068 3.582482e-13 0.44703844 0.43181318 -0.28252932 -3.9717087e-09 -2.0632758e-06 -0.23538992
0.022704113 0.6267161 -0.57610875 -8.4309475e-15 -1.2635972 0.22066696 0.44702855 1.770192e-12
2.4737149e-27 0.3044499 0.41110304 -0.50997794 0.3711683 5.7990125e-13 -0.27675655 0.4330286
-0.19185512 -3.9861644e-13 1.9808474e-23 0.6884254 0.75277984 0.22184618 -8.7168985e-07 -5.1565405e-19
-2.1582862e-07 -7.8342455e-06 -2.0334221e-07 2.2856004e-16 -2.6587155e-24 3.9920153e-08 1.2787378e-08 8.796676e-09
-0.049109716 9.059152e-14 -0.35694048 0.7118148 0.046469063 2.4873445e-12 -1.776142e-14 0.20708914
0.31165788 0.70344204 -0.016867302 -1.5627998e-12 0.08599931 0.376718 0.07107184 -2.9784933e-12
-7.8246924e-23 -0.31974226 0.097770885 1.0091077 0.95755315 -8.929469e-13 -0.1508316 -0.13802275
0.28322148 2.9266367e-14 1.3148619e-24 -0.100746214 0.254691 0.25326183 6.6162826e-08 4.6665053e-19
-2.5603311e-08 3.619603e-09 1.3930745e-07 -5.6095525e-20 -2.6763958e-25 -2.1166514e-08 9.741311e-09 -1.212174e-08
0.4501664 -8.9777625e-14 -0.33286285 0.17636196 0.8495308 -2.9154415e-07 1.0295154e-06 0.011810555
-0.17006025 0.3434829 -0.25702178 -6.1062727e-13 0.271366 0.30959398 0.52425003 1.6031086e-12
6.069059e-14 0.6131722 0.07621739 -0.69860303

support_net.all_linears.1.bias f4 [10]
00000000: 2e62 803e f821 c83d 5bf8 a3be 9f49 0532
00000010: a8a3 b7bd b579 043e 2055 91bd c690 82b3
00000020: 8d6a 91bb 986f 973d
0.25074905 0.09772104 -0.32025418 7.758358e-09 -0.08966762 0.12937053 -0.070963144 -6.079931e-08
-0.0044377507 0.07394332

support_net.all_linears.2.weight f4 [10, 10]
00000000: d60d 95b9 64a2 5c1c 8f33 85ba df4e 972a
00000010: 2635 1abb df30 4039 ae46 f4b8 ef02 38ad
00000020: a4ed 5fba 8268 64b9 29d1 d33e 1b3e 863d
00000030: 6e89 71bf a036 ad2f 5b56 e3be 8a15 8a3e
00000040: 8af6 f73e 9154 3533 f18e 313e b7fd 2bbe
00000050: b876 f13e e374 8a3e 6610 11be 969c 72af
00000060: bc20 e1bd 1b5f eb3d 9a5c 1b3e 945d 5933
00000070: 28cd 61bd b92e 683e 7d1b dabb 5e69 5637
00000080: 851f 413b 66d4 00ac abb3 30bc b15e b83b
00000090: 2b9a dbbb f493 b3ac f1e9 143c 1150 57bc
000000a0: 4971 3e3e 3a60 a5bf d488 77be 575d 10b1
000000b0: 6bca c73e 13de b03e 8cad 5ebe c6d3 05b4
000000c0: d1f8 313f 8f95 963e 507c 33be f842 e03e
000000d0: ffaa be3e d1e4 a6af a611 a33e d9db 5c3e
000000e0: 0e2e 723f 6126 1432 4b8b f53e ec33 b0be
000000f0: f217 9bbe f561 4e3e 8d6e 773e 449d c231
00000100: da71 80be 3cdd 35bf 5eb4 2bbe e212 e331
00000110: e2c7 16bc 181c 403f 9bdc 1f3f 6443 2cbf
00000120: 719b 3c3e 4f61 cab0 d7a0 0c3f 4402 163f
00000130: c410 d6bd 4e5b 9f33 ef0e 98bd d241 a4bd
00000140: 3b7f 43be 1985 f93e 12d7 ddbd d842 1736
00000150: 5f58 b83d dc3e 8ebe 8f24 01be 0976 1bb2
00000160: 5d71 d63e e0fe fd3e 809f 48be 9fad 94be
00000170: 5d7e 1f3f a976 6c33 3cea a43e b232 1abe
00000180: a221 613e bee9 b233 88a5 5a3e bed3 643e
-0.00028429803 7.300178e-22 -0.001016246 2.6877716e-13 -0.0023530214 0.00018328753 -0.00011647992 -1.04598405e-11
-0.0008542186 -0.00021782707 0.41370514 0.065548144 -0.94350326 3.150733e-10 -0.44401821 0.26969558
0.48430282 4.221926e-08 0.17339684 -0.16796003 0.47160888 0.27042302 -0.14166412 -2.2065402e-10
-0.10992572 0.11492749 0.15172043 5.060936e-08 -0.055127293 0.22674073 -0.006656109 1.2779927e-05
0.002946825 -1.8307799e-12 -0.010785024 0.0056265225 -0.006701728 -5.103912e-12 0.009088979 -0.013141648
0.18597902 -1.2919991 -0.2417329 -2.1007815e-09 0.3902162 0.3454443 -0.2174589 -1.2463633e-07
0.6952029 0.2941098 -0.1752789 0.43801093 0.37239835 -3.0357808e-10 0.31849402 0.2156824
0.94601524 8.62346e-09 0.47957835 -0.34414613 -0.30291706 0.20154555 0.24163266 5.664022e-09
-0.25086862 -0.710407 -0.16768023 6.6087162e-09 -0.009202929 0.7504287 0.6244599 -0.6729033
0.18418671 -1.4725091e-09 0.5493292 0.5859721 -0.104524165 7.420623e-08 -0.07424723 -0.08020367
-0.19091503 0.48734358 -0.10832037 2.2539662e-06 0.090012304 -0.27782333 -0.12611602 -9.0490255e-09
0.41883364 0.49608517 -0.19592094 -0.29038712 0.6230219 5.5055953e-08 0.32209957 -0.15058401
0.21985486 8.3312884e-08 0.21352208 0.22346398

support_net.all_linears.2.bias f4 [10]
00000000: 8304 3837 d11b a83e 1c0b b03e 8923 98ba
00000010: 9e94 653d 254c 74be bd7b fe3d 3f66 0f3d
00000020: 5c75 12bc c17f 0abe
1.0968305e-05 0.32833722 0.34383476 -0.001160727 0.056049936 -0.23857172 0.12425945 0.03500962
-0.0089391135 -0.13525297

support_net.all_linears.3.weight f4 [10, 10]
00000000: 9665 2639 51a7 083f 8d88 403e 00c4 3c3b
00000010: bf6f 383f 5636 17be 20ef 873e 0db6 83be
00000020: bcde 133f ceba 0ebe a434 3fbb 6c89 a7ba
00000030: 38d3 dfbb 5ea6 ab34 9ecc 293b cbed d1bb
00000040: b8bf 2639 b270 2dbc ac2a 7abb c0ce 3dbc
00000050: 9f88 7db8 ee95 43bf d365 853e f736 babb
00000060: 1086 983e 59e8 dbbe 204b 5e3c 18a9 ec3e
00000070: 8dc0 04be d0c4 d63e 6259 2139 3cfd 89be
00000080: c2b8 073e af73 05ba 1633 eebe b546 c5bd
00000090: 1da6 553f 3a53 1dbf a983 913e 19fa ad3e
000000a0: fa7d 3537 692c 2710 9f02 f5b1 d36c cca8
000000b0: bfff 1510 90e5 e18e c81e ccb7 01b4 0916
000000c0: de39 53ae a873 20b7 e054 a9b7 ce2b 27be
000000d0: 0d5b bdbd 8e12 623b 1e67 383f 12ec aa3e
000000e0: 9294 47be a104 f33e d774 8ebe d08a 883e
000000f0: 556c 7e3a 8ceb 3b3f 8741 8f3e 690f 9d3a
00000100: 515b 953e 8f51 6abf dac3 1f3f bac5 d53e
00000110: 4fa5 ab3e 8fa7 fbbd 9e47 8e39 f3bf 213e
00000120: 3175 b93e aea9 0fbb 9085 4ebf 44bf 623f
00000130: 154e 31be a44b 4a3d 7c61 4c3c e99e 913e
00000140: 6621 1139 200e 87be a898 e5bd 6220 e63a
00000150: db21 473d 8f18 8d3e 1343 f43d 3855 f63c
00000160: 0f2e cc3e ddf9 083f 8c36 223a 8241 0e3f
00000170: 7ed6 b13e 88ce a6b9 0773 9b3e be29 c13e
00000180: 3ca8 20bf d993 fb3e a07f 01be 6ce4 7cbe
0.00015868837 0.53380305 0.1880209 0.0028803349 0.7204551 -0.14766821 0.26549625 -0.2572483
0.5776174 -0.13938448 -0.0029175663 -0.0012782044 -0.006830599 3.197228e-07 0.0025909315 -0.006406521
0.00015902414 -0.010585951 -0.0038172407 -0.011584938 -6.044714e-05 -0.7640065 0.26054248 -0.005682822
0.29789782 -0.42950705 0.013567716 0.46222758 -0.12964077 0.4194703 0.00015387454 -0.26951015
0.13254073 -0.00050907856 -0.4652335 -0.09632627 0.83456594 -0.6145512 0.2842076 0.33979872
1.0817772e-05 3.2969155e-29 -7.1307364e-09 -2.2695745e-14 2.9582088e-29 -5.5687843e-30 -2.4333029e-05 1.1123571e-25
-4.8027242e-11 -9.5636715e-06 -2.0185893e-05 -0.16325304 -0.09245882 0.0034495923 0.72032344 0.33383232
-0.19490269 0.4746447 -0.27823517 0.26668406 0.0009705474 0.7340629 0.2797968 0.0011982742
0.2917123 -0.915307 0.6240822 0.41752416 0.33524558 -0.12287819 0.0002713771 0.15795879
0.36222222 -0.0021921205 -0.8067255 0.885731 -0.17314942 0.049388543 0.012474414 0.2844155
0.0001384072 -0.26377964 -0.112107575 0.0017557258 0.04861627 0.275578 0.11926856 0.030069932
0.3987889 0.5350626 0.00061879377 0.55568707 0.34733957 -0.00031815865 0.30361196 0.3772716
-0.62756705 0.49136236 -0.12646341 -0.24696511

support_net.all_linears.3.bias f4 [10]
00000000: dc80 453e 5261 c43c 45f3 083e d1e6 9c3e
00000010: cde7 00ba b7f5 6bbd ee71 b43e 4b0c 3b3e
00000020: 0771 f5be ca56 af3e
0.19287437 0.023972187 0.1337405 0.3064485 -0.00049173535 -0.05760738 0.3524317 0.18266408
-0.47937796 0.34245902

support_net.all_linears.4.weight f4 [10, 10]
00000000: c22b 683e c8e0 423c f8e6 2cbe a843 27bd
00000010: 2621 5130 52dc 713e 57ae 39bf b5d1 02bf
00000020: 6740 503e d88e 5abf 8322 fc3d eaf5 22bb
00000030: 233f 04be 7fdf 2f3e 76dc c425 2b5f 11bf
00000040: 60c7 a13e 2dc3 04bf 1536 9fbe 5b7d 11bf
00000050: c5c6 f03e c3ac 183c 62c2 00bf e783 14bf
00000060: 5cfc 8528 d293 6c3c 8407 45bf 2e14 81be
00000070: 085b d13c 2a39 27bc 7409 adbe b22b 0b3b
00000080: 6829 70be cd95 11bf 04f3 2822 c327 83be
00000090: 4faa 9dbe 60a9 933e 65ea acbd 5066 3b3d
000000a0: 4842 21bd 76dd a63a f6bd 603e 7a99 3ebf
000000b0: 27c3 b92e b4bc 923d 1ff0 ff3d b03c 03bf
000000c0: 4086 ac3e 9ea4 20bf fb8e 5cbf fadb f63a
000000d0: 4d10 853e 2f42 9e3c 6de0 abab 86f0 b53d
000000e0: d54f 74be 375f a93d a199 b63d 5f4e 40bf
000000f0: fa79 0dbe dd8c 5639 91d2 0abf b182 643e
00000100: 596e 72ad e1fd 3bbf c8e2 8bbe 1965 2ebe
00000110: be5c 8f3e 72dc 78bd afee b83d 28d7 9f39
00000120: bf66 b0be 9e9e dcbe 0d49 0a91 3452 37be
00000130: 7d41 713e 2f0b 21be e9cc 34bf 334a 5b3e
00000140: 6432 b3be e481 ecba 6caf 33be 4aaa a7be
00000150: cbea b0a5 3a80 a13e e0c2 24bf 2dba abbe
00000160: 4f48 4b3e 4d18 86bd a5d2 0bbf 91bd eeba
00000170: 6c99 de3e 45a1 c0bd c737 112e 7eed 17bc
00000180: 30e4 4dbe 1e0b 0bbf 00c3 c8be 0b26 133d
0.22672942 0.011894412 -0.16884983 -0.040836006 7.6080864e-10 0.23619202 -0.72531646 -0.5110124
0.20337068 -0.8537421 0.1231127 -0.0024865814 -0.1291471 0.171751 3.414997e-16 -0.5678584
0.31597424 -0.51860315 -0.3109595 -0.568319 0.4702665 0.009318533 -0.50296605 -0.58013767
1.487541e-14 0.01443954 -0.7696459 -0.25210708 0.025556102 -0.0102065 -0.33796275 0.0021235761
-0.23453295 -0.568692 2.2896897e-18 -0.25616273 -0.30793998 0.2884016 -0.08443145 0.04575187
-0.03936985 0.0012730795 0.21947464 -0.74452937 8.447492e-11 0.071648985 0.12496971 -0.51264477
0.33696175 -0.62751186 -0.8615567 0.0018833869 0.25989 0.019318668 -1.2212571e-12 0.08883767
-0.23858579 0.08270114 0.08916021 -0.75119585 -0.13816062 0.00020461106 -0.5422755 0.2231548
-1.37806095e-11 -0.73434263 -0.27321458 -0.17030753 0.28000444 -0.060757108 0.090299 0.00030487147
-0.3445339 -0.43089765 -1.0908791e-28 -0.17902452 0.23560138 -0.15726922 -0.7062517 0.21415024
-0.34999382 -0.0018044082 -0.17547387 -0.32747108 -3.0690235e-16 0.31543142 -0.64359856 -0.33540478
0.19851802 -0.06547604 -0.54618293 -0.0018214454 0.43476427 -0.0940576 3.3018723e-11 -0.009272931
-0.20106578 -0.5431384 -0.39211273 0.035924952

support_net.all_linears.4.bias f4 [10]
00000000: 51de 0fbe 911a 213e 1e33 22be 8cae 08be
00000010: 1d94 f4be 9e3d 00be bbe3 89be e6ca 88bd
00000020: ca51 00bf f89e 4abd
-0.1404965 0.1573279 -0.15839812 -0.13347834 -0.4776925 -0.12523505 -0.26931557 -0.06679325
-0.501248 -0.04946801
