model/fairness/credit_age_1.0_type1.pt (torch, 20097 bytes, 6 tensors)

all_linears.0.bias f4 [64]
0.5422261 0.28846744 0.13996983 -0.028253796 0.14326349 0.0 -0.3575452 0.0
0.0 -0.23706485 -0.87989676 0.35783148 -0.25481775 0.32180342 -0.38967508 -0.28644964
0.0 -0.06081668 -0.16361097 -0.6735688 -0.057151087 -0.018178467 0.023694035 -0.07264208
-0.15337788 -0.24806155 0.52068436 -0.39195052 0.18388893 -0.524946 -0.06974386 -0.14244792
0.0 -0.012181377 -0.23184398 -0.0775325 -0.094859086 -0.4104228 -0.055445682 -0.44931784
-0.08979987 -0.054361563 -0.3379613 0.061339844 0.0 0.051902164 -0.008019006 -0.045267384
0.25659364 0.0 -0.39498508 0.0 -0.031278215 -0.007905242 0.17509334 -0.14784917
-0.060025614 0.0 0.3771495 -0.081885 -0.05899338 -0.20311993 0.6661136 -0.9053903
00000000: 54cf 0a3f 01b2 933e 4054 0f3e 8174 e7bc
00000010: aab3 123e 0000 0000 2a10 b7be 0000 0000
00000020: 0000 0000 21c1 72be ea40 61bf b035 b73e
00000030: 7977 82be 6bc3 a43e 7e83 c7be 87a9 92be
00000040: 0000 0000 e91a 79bd a289 27be 016f 2cbf
00000050: 4217 6abd 02eb 94bc fe19 c23c 5fc5 94bd
00000060: 170f 1dbe d903 7ebe 924b 053f bdad c8be
00000070: 614d 3c3e dc62 06bf ded5 8ebd dedd 11be
00000080: 0000 0000 6694 47bc 8268 6dbe 5cc9 9ebd
00000090: 7b45 c2bd f022 d2be 031b 63bd fd0c e6be
000000a0: ffe8 b7bd 3baa 5ebd 4309 adbe 7d3f 7b3d
000000b0: 0000 0000 5d97 543d 2662 03bc 4b6a 39bd
000000c0: 3e60 833e 0000 0000 7c3b cabe 0000 0000
000000d0: 961d 00bd fd84 01bc ab4b 333e c665 17be
000000e0: 6bdd 75bd 0000 0000 bd19 c13e 53b3 a7bd
000000f0: 0ba3 71bd acfe 4fbe 6c86 2a3f a9c7 67bf

all_linears.1.bias f4 [32]
-0.56051886 -0.31697798 0.9297484 -0.3620709 -0.27404058 0.04243268 -0.33268592 -0.076458596
-0.38568634 0.00930367 -0.31761083 0.27589393 -0.7769846 -0.12268062 -0.25479326 -0.06707836
-0.28297356 -0.15628783 -0.33591476 -0.3188206 -0.45964825 -0.41831747 -0.28049377 0.056862615
-0.275196 0.2406821 0.4177363 -0.18197094 -0.0009433097 0.017149283 -0.17693062 0.12529452
00000000: 2a7e 0fbf f04a a2be fe03 6e3f 5b61 b9be
00000010: 0c4f 8cbe e4cd 2d3d cf55 aabe 5396 9cbd
00000020: ae78 c5be 6c6e 183c e39d a2be f841 8d3e
00000030: 76e8 46bf fa3f fbbd 4374 82be 6160 89bd
00000040: e9e1 90be eb09 20be 05fd abbe 743c a3be
00000050: 0457 ebbe b52d d6be e19c 8fbe c6e8 683d
00000060: 7de6 8cbe 5e75 763e 88e1 d53e 9756 3abe
00000070: 7148 77ba a77c 8c3c 4d2d 35be 354d 003e

all_linears.2.bias f4 [16]
-0.43978715 0.44067475 -0.2661087 0.21610683 -0.4070687 0.061169032 -0.32460114 1.0007969
-0.16559131 -0.021379597 -0.19967942 0.09036654 0.09447215 0.8580142 0.41935304 0.3065611
00000000: c82b e1be 1fa0 e13e 663f 88be 1c4b 5d3e
00000010: 4f6b d0be 618c 7a3d 1f32 a6be 1d1a 803f
00000020: c590 29be 4424 afbc c378 4cbe 1812 b93d
00000030: 9d7a c13d d2a6 5b3f 71b5 d63e 94f5 9c3e

all_linears.3.bias f4 [8]
0.20242642 0.19893809 -0.073417805 0.18379197 0.7649609 -0.48983777 0.31811395 -0.29207402
00000000: df48 4f3e 6db6 4b3e 135c 96bd f633 3c3e
00000010: 7ad4 433f 04cc fabe d5df a23e ba8a 95be

all_linears.4.bias f4 [4]
-0.12936625 -0.401418 -0.08648123 0.63675433
00000000: 9678 04be a986 cdbe 121d b1bd 5502 233f

all_linears.5.bias f4 [2]
-0.5240455 0.5240413
00000000: d927 06bf 9227 063f
