model/fairness/credit_age_0.86175.pt (torch, 20097 bytes, 6 tensors)

all_linears.0.bias f4 [64]
00000000: 13ac 033f 3dbb 943e fc1e 0c3e db4f cbbc
00000010: f3f8 d83d 0000 0000 f590 97be 0000 0000
00000020: 0000 0000 babc 3ebe cdf1 57bf a35e 693e
00000030: 8cdf 85be 5782 933e f486 e6be eab4 69be
00000040: 0000 0000 cc34 78bd 0e3c 41bd 7bb6 19bf
00000050: 4217 6abd e591 84bd 976e ba3d 5fc5 94bd
00000060: 170f 1dbe a897 3cbe 28ab fe3e e20a ddbe
00000070: 6de2 5f3e dc62 06bf ded5 8ebd eece 19be
00000080: 0000 0000 b8a9 343d b2a4 4cbe 2ada 2bbd
00000090: 7b45 c2bd f022 d2be 031b 63bd 1412 d4be
000000a0: ffe8 b7bd 3baa 5ebd 1b0c 89be 5e7f f13c
000000b0: 0000 0000 22cf 903d 0000 0000 0f18 39bd
000000c0: c66e 763e 0000 0000 5a53 88be 0000 0000
000000d0: 6b34 89bc 0000 0000 d252 413e 7d22 32be
000000e0: 6bdd 75bd 0000 0000 8712 d23e 53b3 a7bd
000000f0: 0ba3 71bd a426 43be bd9e 323f 4f19 3dbf
0.5143444 0.290491 0.13683695 -0.024818351 0.10594358 0.0 -0.2960278 0.0
0.0 -0.18626681 -0.84353334 0.22790007 -0.26147115 0.2881038 -0.45024836 -0.2282292
0.0 -0.060597226 -0.047176413 -0.6004407 -0.057151087 -0.0647314 0.091031246 -0.07264208
-0.15337788 -0.18417227 0.49739957 -0.43172365 0.21863718 -0.524946 -0.06974386 -0.15020344
0.0 0.04410717 -0.19984701 -0.041956104 -0.094859086 -0.4104228 -0.055445682 -0.41420043
-0.08979987 -0.054361563 -0.26767048 0.029479679 0.0 0.070707574 0.0 -0.04518896
0.24065694 0.0 -0.26626092 0.0 -0.016748628 0.0 0.1887925 -0.17395969
-0.060025614 0.0 0.4102976 -0.081885 -0.05899338 -0.19057709 0.69773465 -0.7386674

all_linears.1.bias f4 [32]
00000000: cea6 48bf 532c 4bbe cc8b 853f 5b61 b9be
00000010: 0c4f 8cbe eb03 193e cf55 aabe 5396 9cbd
00000020: 3d8b 9ebe 8299 c73d 66a6 95be 0c75 d63e
00000030: df2a 2cbf fa3f fbbd 4374 82be 2825 1ebd
00000040: e9e1 90be ec97 22be 21f5 9ebe 7cf4 90be
00000050: 563a d9be 1b9e bbbe e19c 8fbe 2391 f23d
00000060: a054 26be e741 783e b9ec b53e 9756 3abe
00000070: da70 0abc eee5 b33d 263d 1bbe 8f02 a13e
-0.78379524 -0.19841127 1.0433288 -0.3620709 -0.27404058 0.14942901 -0.33268592 -0.076458596
-0.30965605 0.09746076 -0.29228514 0.41886175 -0.67252916 -0.12268062 -0.25479326 -0.038609654
-0.28297356 -0.15878266 -0.31046394 -0.28311527 -0.4242732 -0.36644062 -0.28049377 0.11844089
-0.1624322 0.2424389 0.35532168 -0.18197094 -0.0084497575 0.0878409 -0.15160045 0.31447265

all_linears.2.bias f4 [16]
00000000: c82b e1be e741 23bd 2cb5 b0be 77b6 e03e
00000010: 3b58 72be ad7e 3a3e 3ca2 a5be f94a 7b3f
00000020: 9725 cebd c3b9 55bc b775 29be 124f 19bc
00000030: 7507 a63e 9e2b 6d3f deff 863e 8bf6 5c3e
-0.43978715 -0.03985777 -0.34513223 0.4388921 -0.2366647 0.18212385 -0.32350338 0.98161274
-0.100657634 -0.013044777 -0.16548811 -0.009357231 0.32427564 0.9264468 0.26367086 0.21578424

all_linears.3.bias f4 [8]
00000000: bcde b73e 87ee a13d d021 4ebd 488e 46bd
00000010: 63b3 543f 04cc fabe 4e34 eb3e ebf4 53be
0.3591212 0.079068236 -0.050325215 -0.048475534 0.8308622 -0.48983777 0.45938343 -0.20698898

all_linears.4.bias f4 [4]
00000000: 49f9 b4bd 1766 71be 6b4a c13c 71a4 3c3f
-0.0883661 -0.235741 0.023595056 0.7368842

all_linears.5.bias f4 [2]
00000000: 6def 09bf 26ef 093f
-0.5388096 0.53880537
