model/fairness/credit_age_0.9895.pt (torch, 20097 bytes, 6 tensors)

all_linears.0.bias f4 [64]
000000 e7 97 00 3f e4 de 8b 3e 5a 32 22 3e 9d fc a9 bc
       0.50231785 0.2731849 0.1583952 -0.020750338
000010 38 88 ec 3d 00 00 00 00 f5 77 a2 be 00 00 00 00
       0.11549419 0.0 -0.31732145 0.0
000020 00 00 00 00 33 4c 58 be e1 23 4a bf 43 68 a3 3e
       0.0 -0.21122818 -0.78960997 0.31915483
000030 97 84 84 be b4 6e 90 3e 6f c7 dc be 36 18 8c be
       -0.25882408 0.2820946 -0.43120906 -0.2736222
000040 00 00 00 00 b3 7e 7e bd 61 cb f8 bd 10 e9 20 bf
       0.0 -0.06213255 -0.121481664 -0.62855625
000050 42 17 6a bd 2e 30 e0 bc 51 cd 53 3d 5f c5 94 bd
       -0.057151087 -0.027366724 0.051709477 -0.07264208
000060 17 0f 1d be 14 dc 7d be b3 f3 f8 3e 8d cc d9 be
       -0.15337788 -0.24790984 0.48623428 -0.42538872
000070 ad 4a 3b 3e dc 62 06 bf de d5 8e bd 44 d4 f8 bd
       0.18290205 -0.524946 -0.06974386 -0.121498615
000080 00 00 00 00 f5 ea 98 3c ee 2f 48 be 46 d1 0c bd
       0.0 0.018666724 -0.19549534 -0.034379266
000090 7b 45 c2 bd f0 22 d2 be 03 1b 63 bd 62 48 d6 be
       -0.094859086 -0.4104228 -0.055445682 -0.418521
0000a0 ff e8 b7 bd 3b aa 5e bd f3 ac a2 be 4a 3c da 3c
       -0.08979987 -0.054361563 -0.31772575 0.026640076
0000b0 00 00 00 00 61 aa 6e 3d 2a 23 9b bb 45 1a 39 bd
       0.0 0.058267955 -0.0047344165 -0.04519107
0000c0 78 b5 80 3e 00 00 00 00 3a 64 97 be 00 00 00 00
       0.2513845 0.0 -0.29568654 0.0
0000d0 82 35 a4 bc 00 00 00 00 e8 12 43 3e d3 e2 17 be
       -0.020045046 0.0 0.19050181 -0.1483262
0000e0 6b dd 75 bd 00 00 00 00 e6 ff c8 3e 53 b3 a7 bd
       -0.060025614 0.0 0.39257735 -0.081885
0000f0 0b a3 71 bd e4 d8 47 be a3 0f 2c 3f f3 81 49 bf
       -0.05899338 -0.19516331 0.6721136 -0.7871391

all_linears.1.bias f4 [32]
000000 87 df 2d bf 8a fb 54 be 30 20 7e 3f 5b 61 b9 be
       -0.679192 -0.2079908 0.99267864 -0.3620709
000010 0c 4f 8c be ef b2 0b 3e cf 55 aa be 53 96 9c bd
       -0.27404058 0.13642476 -0.33268592 -0.076458596
000020 fd 1b a2 be 71 89 ae 3d 9c 10 ae be c8 7b bd 3e
       -0.31661978 0.085223086 -0.33997047 0.370085
000030 58 8b 3a bf fa 3f fb bd 43 74 82 be 0c 09 85 bd
       -0.7286887 -0.12268062 -0.25479326 -0.06495866
000040 e9 e1 90 be ba 18 16 be 52 8c be be ee c5 a5 be
       -0.28297356 -0.1465787 -0.3721643 -0.3237757
000050 cb 45 dc be ab 43 b2 be e1 9c 8f be 60 77 9e 3c
       -0.43021998 -0.34817252 -0.28049377 0.019344032
000060 f3 e1 13 be 40 ac 7b 3e d5 22 b4 3e 97 56 3a be
       -0.14441662 0.24577427 0.35182825 -0.18197094
000070 9d bb a4 3e 25 20 c1 3c 44 31 ae bd 9f be 6d 3e
       0.32174388 0.023574898 -0.085054904 0.23217247

all_linears.2.bias f4 [16]
000000 c8 2b e1 be 52 11 61 3e fe d8 80 be 43 47 99 3e
       -0.43978715 0.21979263 -0.25165552 0.2993718
000010 be 7b 8c be b8 e7 38 3e b2 72 84 be 4d 7f 53 3f
       -0.27438158 0.18057144 -0.25868756 0.8261612
000020 ab 8c 2c bd c3 b9 55 bc 81 39 57 be 8e 48 5f bd
       -0.04212634 -0.013044777 -0.2101803 -0.054512553
000030 76 50 a4 3e 34 25 62 3f 46 32 85 3e 61 c7 d4 3e
       0.32092637 0.8833802 0.26014918 0.41558364

all_linears.3.bias f4 [8]
000000 78 96 94 3e 94 d0 74 bb a9 2a c3 3c e7 69 5f 3e
       0.2902105 -0.0037355768 0.023824053 0.21817742
000010 0b ca 2b 3f 04 cc fa be 8b fd cb 3e be 92 9a bb
       0.6710517 -0.48983777 0.39841875 -0.0047172

all_linears.4.bias f4 [4]
000000 b3 bf ef bd 45 4f 50 3d 57 c9 a2 3d 39 bd 0e 3f
       -0.117064856 0.050856847 0.07948559 0.5575748

all_linears.5.bias f4 [2]
000000 0d 88 c4 be 7f 87 c4 3e
       -0.38385049 0.38384625
